Models/Model2_EEGNet.pt (torch, 54061 bytes, 22 tensors)

network.0.weight f4 [8, 1, 5, 5]
-0.20816652 -0.12027213 0.008280699 0.25983495 0.1874984 0.040075 -0.04068897 0.23891515
0.21955006 0.1324249 -0.13127814 0.1320771 0.19449581 0.47953478 -0.08474595 0.08146179
-0.20162255 0.24458382 0.1415335 0.18789826 -0.02805292 -0.0750689 -0.17629169 0.2797737
0.12809025 0.33379588 0.02205905 -0.3794516 -0.24268652 -0.16782694 0.09840908 0.042127214
-0.52161616 -0.053508587 0.10354867 -0.05868254 -0.06394136 -0.54675233 -0.14951372 0.018631238
0.07502316 0.014078489 -0.3529441 -0.17882176 -0.22007693 0.18296273 0.099183254 0.110144
-0.009902034 0.06415132 0.054853562 -0.121463776 -0.010141309 0.31399593 -0.10773717 0.029560007
-0.12274126 -0.14525822 0.048578165 0.17583144 0.34951222 0.13795574 0.11714269 0.31442353
0.13165493 0.043565214 0.21586491 -0.1652195 0.23565322 -0.15070833 0.18554255 0.09745497
-0.20668983 -0.0731963 -0.0553493 0.21806508 0.24300149 0.42828456 0.07434997 -0.2239778
0.060152143 0.22728477 0.36270952 0.032031782 0.10382283 -0.21031237 0.014712386 0.1571984
-0.24400716 -0.22835803 0.018088626 -0.1317345 0.09979547 -0.18432759 -0.30346212 0.07277608
-0.014327605 -0.07734869 -0.120947756 -0.3576787 0.2682147 0.37827823 0.15553962 0.13992631
0.053406246 0.15993097 0.19638693 0.16858122 0.012916257 -0.18829879 0.28478345 0.34256515
0.043781687 0.07727515 -0.08664434 0.14075373 0.10321242 -0.13351208 -0.22536594 -0.13846862
-0.15983625 0.047810797 -0.27448192 -0.35451192 -0.12095037 -0.050946478 -0.38692644 -0.15367232
-0.23430203 -0.17499864 0.005202614 -0.4386641 -0.051045075 -0.07984156 0.042777844 -0.28964317
-0.27495432 0.12815273 0.1817376 -0.23485814 -0.33931726 -0.30506754 0.14637414 -0.03601314
0.00801788 0.09553347 -0.1375744 0.038039986 -0.063807726 -0.0041946997 0.2766578 0.21111535
0.069210745 0.0065581836 -0.15707521 0.17606887 0.16372943 -0.2588315 -0.24908184 -0.17330797
-0.17932096 0.09368608 -0.23858836 -0.30067703 -0.080548294 -0.017177138 0.0043082815 -0.20708558
-0.30389336 -0.24395004 0.042081423 0.14697231 -0.17960067 0.10048577 -0.044299547 -0.03314714
-0.34415847 0.31101927 0.060310747 -0.091190964 0.08521692 -0.33126485 0.08089452 0.29739374
-0.16185082 -0.021754345 -0.36355287 0.113984905 0.1111779 -0.21315005 0.11127965 0.024734942
0.122783616 0.33069184 -0.09759339 -0.16821715 -0.025173038 0.017724557 0.24434243 0.040830374
00000000: 9b29 55be 3c51 f6bd c5ab 073c 1609 853e
00000010: 95ff 3f3e af25 243d 7aa9 26bd 2ca6 743e
00000020: bbd1 603e 659a 073e c76d 06be 383f 073e
00000030: e929 473e 9585 f53e 498f adbd 70d5 a63d
00000040: 2476 4ebe 2e74 7a3e 28ee 103e 6768 403e
00000050: 3dcf e5bc b9bd 99bd cf85 34be 803e 8f3e
00000060: 172a 033e 4be7 aa3e 2eb5 b43c 7b47 c2be
00000070: d182 78be d3da 2bbe b38a c93d 968d 2c3d
00000080: a388 05bf d22b 5bbd 5311 d43d 1a5d 70bd
00000090: b0f3 82bd f6f7 0bbf 201a 19be 8aa0 983c
000000a0: bea5 993d 76a9 663c 17b5 b4be 0d1d 37be
000000b0: d95b 61be 955a 3b3e 9720 cb3d 2d93 e13d
000000c0: 243c 22bc c461 833d 21ae 603d 00c2 f8bd
000000d0: bc27 26bc 13c4 a03e 4ea5 dcbd d427 f23c
000000e0: c55f fbbd 92be 14be e6f9 463d 280d 343e
000000f0: 44f3 b23e 4544 0d3e 82e8 ef3d 1ffc a03e
00000100: 8dd0 063e 7071 323d b10b 5d3e 4d2f 29be
00000110: 144f 713e 4953 1abe defe 3d3e 7996 c73d
00000120: 80a6 53be f1e7 95bd f3b5 62bd 744c 5f3e
00000130: 62d5 783e 1d48 db3e cc44 983d 705a 65be
00000140: 1862 763d 57bd 683e 10b5 b93e c233 033d
00000150: 10a1 d43d 205c 57be 380c 713c 9ef8 203e
00000160: 03dd 79be b0d6 69be 992e 943c 69e5 06be
00000170: 9161 cc3d 5fc0 3cbe 635f 9bbe a00b 953d
00000180: 55be 6abc fd68 9ebd 75b3 f7bd aa21 b7be
00000190: 7053 893e afad c13e c745 1f3e d848 0f3e
000001a0: 82c0 5a3d f2c4 233e a819 493e 8ea0 2c3e
000001b0: b59e 533c 66d1 40be 23cf 913e b364 af3e
000001c0: 6d54 333d 6f42 9e3d 9672 b1bd bf21 103e
000001d0: 0961 d33d 64b7 08be 54c6 66be b8ca 0dbe
000001e0: 1dac 23be 41d5 433d e588 8cbe 9682 b5be
000001f0: d4b4 f7bd 41ad 50bd 391b c6be 475c 1dbe
00000200: dfec 6fbe d832 33be b07a aa3b 9598 e0be
00000210: a414 51bd f983 a3bd d237 2f3d 1c4c 94be
00000220: d0c6 8cbe 783a 033e 6c19 3a3e a77e 70be
00000230: feba adbe d031 9cbe 1ae3 153e 8482 13bd
00000240: 6d5d 033c 0da7 c33d 4ee0 0cbe d1cf 1b3d
00000250: a0ad 82bd b173 89bb 17a6 8d3e 9f2e 583e
00000260: 5dbe 8d3d 08e6 d63b 53d8 20be 664b 343e
00000270: b0a8 273e 9085 84be 4f0f 7fbe a577 31be
00000280: ea9f 37be 7dde bf3d 8250 74be 57f2 99be
00000290: 81f6 a4bd 12b7 8cbc 7c2c 8d3b 3e0e 54be
000002a0: e997 9bbe 0ace 79be 925d 2c3d e97f 163e
000002b0: 3de9 37be 7ccb cd3d 7173 35bd 4cc5 07bd
000002c0: 8a35 b0be eb3d 9f3e 6708 773d 54c2 babd
000002d0: 3586 ae3d 8c9b a9be 07ac a53d fe43 983e
000002e0: 39bc 25be 2b36 b2bc 9a23 babe eb70 e93d
000002f0: 3db1 e33d 0244 5abe 96e6 e33d efa0 ca3c
00000300: fa75 fb3d 7150 a93e 0bdf c7bd 1e41 2cbe
00000310: b037 cebc 1733 913c e734 7a3e c03d 273d

network.0.bias f4 [8]
-0.06032093 0.08533804 -0.30945617 0.047243178 0.2243347 -0.14018397 -0.14307445 0.0024079236
00000000: 1413 77bd b6c5 ae3d 0a71 9ebe 1082 413d
00000010: ffb7 653e 638c 0fbe 1c82 12be 41ce 1d3b

network.1.weight f4 [8]
1.065803 1.0747643 0.8510626 1.0965849 1.043389 1.0203109 0.9345772 1.0179406
00000000: 3c6c 883f e091 893f 3ddf 593f e55c 8c3f
00000010: c58d 853f 8c99 823f 7440 6f3f e14b 823f

network.1.bias f4 [8]
0.04633288 -0.286372 0.06593253 0.25837392 0.09826359 -0.17796054 -0.060021013 0.033060923
00000000: 8cc7 3d3d 5a9f 92be a207 873d 9649 843e
00000010: 6c3e c93d 4a3b 36be 98d8 75bd e46a 073d

network.1.running_mean f4 [8]
-0.10063012 0.124783754 -0.3289754 0.051494516 0.21075876 -0.09627945 -0.122657284 0.0022534216
00000000: 2a17 cebd a08e ff3d 776f a8be eaeb 523d
00000010: 25d1 573e 292e c5bd be33 fbbd 24ae 133b

network.1.running_var f4 [8]
163.44533 205.92645 52.965794 121.44533 123.36398 165.10318 123.554825 107.959404
00000000: 0172 2343 2ced 4d43 f9dc 5342 02e4 f242
00000010: 5cba f642 6a1a 2543 121c f742 37eb d742

network.2.weight f4 [16, 8, 5, 5]
0.24080944 0.09163223 0.085814066 0.11923565 0.121223204 0.1608896 0.14388728 0.12240264
0.09739512 0.12770595 0.18661085 0.036021303 -0.02252311 0.02622913 0.009995666 0.28234628
0.08722906 0.020125143 0.06994972 -0.047754522 0.3076274 0.07483506 0.0007234283 0.08992756
0.010078519 -0.20366417 -0.10900895 -0.0736535 -0.12068758 -0.08525395 -0.20208377 -0.018867498
0.010538536 -0.031480376 -0.07952552 -0.20773889 -0.12266721 -0.06277136 -0.020181028 -0.12514532
-0.1424442 -0.14811592 0.037525043 0.017933294 0.0022188018 -0.25973466 -0.115814 -0.019161984
0.05182586 0.071145676 0.008991354 0.091378234 0.09832292 0.12267214 0.08625644 0.021056794
0.11082667 0.20997149 0.13002007 0.07458274 0.096446306 0.12873746 0.17815296 0.22898017
0.10634313 0.05807603 0.12522684 0.11758017 0.080056824 -0.0003634897 0.1466268 0.04033974
0.087763354 0.074907824 -0.026207803 -0.011408225 -0.0077305934 0.024182938 0.059076015 -0.04181751
0.0032644526 -0.0050622565 0.032866284 -0.033752307 -0.04144114 0.030663539 0.10327784 0.07892901
0.08911245 0.1022519 0.011046626 0.13048472 0.0648612 0.13266714 0.09137939 -0.05536736
0.014158014 0.06441295 0.048583925 0.14773294 -0.22846767 0.03523435 0.18099993 0.036178045
-0.038501285 -0.0756252 0.073550716 0.16178529 0.079636805 0.008334284 -0.08320205 0.11153926
0.202666 0.14533795 0.029899174 -0.12050937 0.04560381 0.09072628 0.048954077 0.0125414105
-0.07674752 0.09951418 0.16086906 0.03645684 0.01788977 0.06346204 -0.11685997 -0.23138514
-0.07888801 -0.12930231 -0.04387093 -0.20336013 -0.20791426 -0.08131561 -0.13450916 -0.100702055
-0.21564868 -0.14285502 -0.106103465 -0.063502386 -0.033711784 -0.1905451 -0.1742003 -0.115002744
-0.02195933 -0.014753566 -0.23681255 -0.28001523 -0.15463723 -0.13980103 -0.17515655 -0.039668523
-0.070097946 -0.10400086 -0.01366499 -0.25991067 -0.03642501 -0.032390255 -0.109493144 -0.03201639
-0.20589742 -0.049590934 0.034054168 -0.10335858 -0.08964234 -0.23176725 -0.09270721 0.0061034197
-0.015532893 0.011849145 -0.28353164 -0.04630243 0.032681737 0.06341281 0.07427843 0.16186021
-0.04093115 -0.015737692 0.114995524 0.03170505 0.08485977 -0.0857598 0.042617 0.04258491
0.009341071 0.16965482 -0.02794771 -0.10261891 -0.044176932 -0.08997111 0.19525655 -0.059384305
-0.026963614 0.037086826 -0.07575468 0.13890281 0.07375347 0.0315419 0.08907084 -0.019156117
0.045609638 0.21036568 0.14223929 0.018443896 -0.23186569 0.03854465 0.11360187 0.071019106
0.022658369 -0.27566275 -0.07480755 0.060643304 0.09690561 -0.030995514 -0.23785384 -0.07376547
0.10993082 0.16155083 0.04723947 -0.32851422 -0.1447548 0.075999565 0.09063717 -0.059598383
-0.33768615 0.0033036452 -0.089593224 -0.1609017 -0.13000564 0.092648044 -0.041646063 -0.06944722
-0.10516172 -0.19044589 0.18415579 -0.027958965 0.10199431 -0.13250121 -0.17985217 0.10414181
0.04505424 -0.019412948 -0.12681948 -0.041265726 0.22810377 0.118934505 0.015911246 -0.006949527
0.0007770375 0.21699636 -0.025449818 0.10660282 -0.037033577 0.088632874 0.076901644 -0.058903392
00000000: c096 763e aea9 bb3d 49bf af3d d231 f43d
00000010: df43 f83d 3ec0 243e 3057 133e 3cae fa3d
00000020: 1877 c73d 59c5 023e ea16 3f3e 138b 133d
00000030: 6382 b8bc 79de d63c ddc4 233c b18f 903e
00000040: 26a5 b23d 7cdd a43c cc41 8f3d 3f9a 43bd
00000050: 5781 9d3e 2043 993d 74a4 3d3a f12b b83d
00000060: 5f20 253c 578d 50be 1640 dfbd a5d7 96bd
00000070: 0d2b f7bd 9f99 aebd 0cef 4ebe 0390 9abc
00000080: d3a9 2c3c 91f1 00bd 47de a2bd 81b9 54be
00000090: f238 fbbd 458e 80bd af52 a5bc 1826 00be
000000a0: e4dc 11be b3ab 17be dcb3 193d d8e8 923c
000000b0: 5169 113b f1fb 84be e42f edbd 98f9 9cbc
000000c0: 5a47 543d d3b4 913d 7950 133c 8324 bb3d
000000d0: 875d c93d 883b fb3d 37a7 b03d 4c7f ac3c
000000e0: 18f9 e23d c402 573e fb23 053e d6be 983d
000000f0: a485 c53d c1d3 033e bb6d 363e c779 6a3e
00000100: 6dca d93d 22e1 6d3d 773b 003e dfcd f03d
00000110: d5f4 a33d c392 beb9 5625 163e 493b 253d
00000120: 46bd b33d 4669 993d bfb1 d6bc 90e9 3abc
00000130: eb50 fdbb 4c1b c63c b1f9 713d d648 2bbd
00000140: 6df0 553b 49e1 a5bb cc9e 063d dc3f 0abd
00000150: 2fbe 29bd 1a32 fb3c 5583 d33d 88a5 a13d
00000160: 9780 b63d 7269 d13d e8fc 343c c99d 053e
00000170: f3d5 843d e5d9 073e 1e25 bb3d e3c8 62bd
00000180: 04f7 673c f0ea 833d f0ff 463d 4e47 173e
00000190: 6ef3 69be e551 103d 0c58 393e 6e2f 143d
000001a0: 86b3 1dbd 63e1 9abd c2a1 963d 0bab 253e
000001b0: 9f18 a33d 858c 083c d665 aabd b26e e43d
000001c0: ad87 4f3e 79d3 143e 1def f43c 9ecd f6bd
000001d0: 10cb 3a3d b3ce b93d 1284 483d 7d7a 4d3c
000001e0: ce2d 9dbd 17ce cb3d dcba 243e c453 153d
000001f0: 918d 923c 63f8 813d 4854 efbd 3af0 6cbe
00000200: 0990 a1bd d367 04be 01b2 33bd a33d 50be
00000210: 7ae7 54be cc88 a6bd c5bc 09be e13c cebd
00000220: 02d3 5cbe 9648 12be c64c d9bd 8a0d 82bd
00000230: 5e15 0abd 411e 43be 9061 32be 8f86 ebbd
00000240: 0ee4 b3bc f1b8 71bc fd7e 72be 285e 8fbe
00000250: 3959 1ebe 0028 0fbe 3d5c 33be 767b 22bd
00000260: 838f 8fbd 67fe d4bd 1fe3 5fbc 0313 85be
00000270: 6432 15bd a5ab 04bd f13d e0bd 9e23 03bd
00000280: c6d6 52be dd1f 4bbd 627c 0b3d aaad d3bd
00000290: 6796 b7bd 6554 6dbe 47dd bdbd 32ff c73b
000002a0: ad7d 7ebc eb22 423c 0f2b 91be 9ea7 3dbd
000002b0: 49dd 053d 93de 813d 4a1f 983d afbe 253e
000002c0: 6ca7 27bd 55ec 80bc c682 eb3d 28dd 013d
000002d0: f6ca ad3d d6a2 afbd 2a8f 2e3d 846d 2e3d
000002e0: 4b0b 193c feb9 2d3e 99f2 e4bc dd29 d2bd
000002f0: dff2 34bd c642 b8bd 55f1 473e f53c 73bd
00000300: cce2 dcbc 5be8 173d 4525 9bbd 8a3c 0e3e
00000310: 0f0c 973d 1432 013d c66a b63d 4aed 9cbc
00000320: 2cd1 3a3d 1a6a 573e 2da7 113e a717 973c
00000330: 336e 6dbe ffe0 1d3d 19a8 e83d 7772 913d
00000340: 0b9e b93c ab23 8dbe b334 99bd 1d65 783d
00000350: 7376 c63d 4eea fdbc f58f 73be 5a12 97bd
00000360: 6923 e13d 956d 253e 2d7e 413d 0433 a8be
00000370: 9a3a 14be a9a5 9b3d fb9f b93d 6f1d 74bd
00000380: 33e5 acbe f881 583b a77c b7bd 6ac3 24be
00000390: 3320 05be 42be bd3d 1095 2abd 583a 8ebd
000003a0: 075f d7bd 3f04 43be 5693 3c3e 330a e5bc
000003b0: 65e2 d03d 66ae 07be 2b2b 38be 4d48 d53d
000003c0: cb8a 383d e707 9fbc f7dc 01be 4006 29bd
000003d0: 0994 693e ef93 f33d 4d58 823c dcb8 e3bb
000003e0: 1bb2 4b3a 4b34 5e3e 237c d0bc 9452 da3d
000003f0: 85b0 17bd 2785 b53d 9c7e 9d3d af44 71bd

network.2.bias f4 [16]
0.14446655 0.0605406 -0.027822912 0.029362008 0.04119723 0.0008426054 0.2510436 0.046519812
-0.06763391 -0.051447745 -0.095902145 -0.025994997 -0.19332273 -0.035202764 0.06480778 0.11027781
00000000: 0aef 133e 6cf9 773d e0ec e3bc 9888 f03c
00000010: 6dbe 283d 4be2 5c3a c988 803e 8f8b 3e3d
00000020: a683 8abd dfba 52bd 5868 c4bd 76f3 d4bc
00000030: 65f6 45be c630 10bd f1b9 843d 55d9 e13d

network.3.weight f4 [16]
0.78039116 0.92066 0.8301895 0.80096036 1.0401394 0.8703676 0.7024803 0.8240529
1.2000442 0.82996124 1.0008528 0.67753994 0.87469095 0.7694428 0.8618639 0.93818086
00000000: b7c7 473f 60b0 6b3f 4d87 543f bd0b 4d3f
00000010: 4a23 853f 69d0 5e3f c0d5 333f 21f5 523f
00000020: 0c9b 993f 5778 543f f21b 803f 4273 2d3f
00000030: bfeb 5f3f 34fa 443f 1da3 5c3f 9f2c 703f

network.3.bias f4 [16]
-0.01760196 -0.25786456 -0.103530146 -0.08122818 -0.015566543 0.30927664 -0.22529395 -0.307377
-0.0344216 -0.06829052 -0.047190405 -0.15521179 -0.0066977455 -0.3686707 -0.09498472 -0.14264292
00000000: fc31 90bc d306 84be 9d07 d4bd f65a a6bd
00000010: d00a 7fbc 8259 9e3e 75b3 66be 8560 9dbe
00000020: aafd 0cbd e6db 8bbd ba4a 41bd d7ef 1ebe
00000030: c378 dbbb 68c2 bcbe 5987 c2bd fc10 12be

network.3.running_mean f4 [16]
1.9833546 1.0128446 -1.2604008 0.5088903 1.7737566 0.43569773 0.19706607 -0.779508
1.9025081 1.2978982 0.8160838 -1.156626 0.15106031 -1.2491913 1.4509706 -0.31262374
00000000: 90de fd3f e4a4 813f d054 a1bf a246 023f
00000010: 750a e33f c613 df3e b0cb 493e d68d 47bf
00000020: 6385 f33f 8721 a63f deea 503f 520c 94bf
00000030: 8eaf 1a3e 80e5 9fbf 68b9 b93f 3810 a0be

network.3.running_var f4 [16]
83.81316 92.20715 56.641647 75.07474 66.66891 79.351715 45.60897 65.09034
85.6808 65.1458 99.62625 47.58786 57.44921 58.776413 55.410965 62.609
00000000: 57a0 a742 106a b842 0c91 6242 4426 9642
00000010: 7b56 8542 14b4 9e42 966f 3642 412e 8242
00000020: 925c ab42 a64a 8242 a440 c742 f859 3e42
00000030: fecb 6542 0c1b 6b42 d4a4 5d42 9e6f 7a42

network.7.weight f4 [16, 16, 3, 3]
0.14577387 0.023922335 -0.09074984 0.16632348 0.05772205 0.00478239 0.22239204 0.18491258
-0.0066207484 0.29687148 0.3185827 0.22603855 0.104439296 0.2199757 0.29021034 0.045843482
0.11903573 0.3225338 -0.12641014 -0.12147189 -0.038074527 0.11912896 0.15534675 -0.054889515
0.047456253 0.12122365 -0.09483925 0.26487556 0.1920798 0.1709001 0.18934731 0.19462642
0.0777761 -0.026946668 -0.046380036 0.09446569 0.14379697 0.05155066 -0.020010868 0.07453705
0.12443345 -0.04640619 0.1853252 -0.021671543 0.121501684 -0.045422602 0.13484709 0.005051948
0.14899686 -0.09406282 0.23041032 0.17564805 0.071398474 0.10363439 -0.04136308 0.10872807
-0.09306843 0.123268336 0.09013444 -0.0011785232 -0.06296886 0.11388617 0.111484304 -0.18574727
-0.029866042 0.040657166 -0.0061529814 0.02844655 -0.070752844 0.08685352 0.08893287 -0.17678241
0.28296116 0.2605325 0.11962956 0.2586502 0.14306174 -0.20740715 0.13127124 0.21387729
-0.016931405 0.1441825 0.08316672 -0.0014587162 -0.08070322 0.2504514 -0.10772417 0.23446912
0.331095 -0.08674982 0.17095959 0.11563635 0.04571422 -0.1597651 0.09371963 0.13222222
-0.0551477 0.03581552 0.099945836 0.057859942 0.049667235 0.1100665 -0.045353983 0.058573265
0.0734243 -0.014481682 0.17143975 0.087333195 0.12755726 -0.009608159 0.17659809 0.13484095
0.13267286 0.1219606 0.0895012 -0.055242542 0.086006135 0.13109359 -0.16801514 0.0906522
0.1268447 0.20422441 0.06163961 0.2688976 0.23907766 0.16447985 0.047044657 -0.025336321
0.10290512 -0.0023840463 -0.042887136 0.10203809 0.08837573 -0.0443934 0.050265115 -0.13886902
0.039708372 0.1419116 0.009722094 -0.17237714 -0.0696102 0.16793571 -0.02186629 -0.09212424
-0.10216705 -0.088167116 0.09372749 0.04993553 0.109106705 -0.043981537 -0.033840332 -0.02668745
-0.13537166 -0.091584325 -0.061256275 -0.114130385 -0.057947848 0.029612176 -0.13050722 -0.04687162
-0.033917297 0.006138593 0.123758495 -0.06289523 -0.0790209 0.19990988 -0.042213876 0.01662149
0.0008388963 -0.005329557 0.21201615 -0.082406685 -0.067624465 -0.09264213 -0.1362065 -0.16086124
0.025355946 0.07301077 -0.0026235492 -0.10565088 0.29251462 -0.08615344 0.083564416 0.07771811
0.093285576 -0.13863945 -0.106347345 0.05586038 0.062351078 -0.023245184 -0.07230734 0.066341154
0.038980886 -0.09593032 -0.019432588 -0.11971684 0.09654934 0.13250126 -0.12327115 0.0025599627
0.10482661 -0.0453323 -0.018197278 0.107965924 0.099210136 0.11085863 -0.1335745 0.05422883
-0.01840478 -0.17065741 0.09832502 0.025591876 0.011295726 0.30289713 0.010536467 -0.006983233
0.23140357 0.055292014 0.07644016 -0.13498077 -0.099121615 0.1413279 0.10657114 -0.1813087
-0.06917252 -0.016544897 0.062038843 0.119421035 -0.039376594 -0.051372085 -0.11253381 0.08687958
-0.17561986 -0.11795424 -0.1532902 0.09294146 -0.08141088 -0.011589892 0.035426445 -0.08632025
0.12864168 -0.18864739 0.008905891 -0.16642186 -0.08588857 0.05701519 0.08820877 -0.09487122
0.03512929 0.13647096 -0.01925771 0.049984504 0.032267105 0.10926565 -0.16981278 0.07024159
00000000: bf45 153e c6f8 c33c 0ddb b9bd b450 2a3e
00000010: f56d 6c3d 98b5 9c3b bdba 633e b959 3d3e
00000020: ddf2 d8bb 8aff 973e 461d a33e a676 673e
00000030: 45e4 d53d 4f41 613e 7396 943e 60c6 3b3d
00000040: 01c9 f33d 2623 a53e a971 01be 41c6 f8bd
00000050: 09f4 1bbd e2f9 f33d 3813 1f3e d4d3 60bd
00000060: 7d61 423d 1b44 f83d 153b c2bd c59d 873e
00000070: 91b0 443e 7000 2f3e 43e4 413e 264c 473e
00000080: 1349 9f3d 42bf dcbc fef8 3dbd 3a77 c13d
00000090: 833f 133e c926 533d d5ed a3bc e2a6 983d
000000a0: f7d6 fe3d 6b14 3ebd e4c5 3d3e 8588 b1bc
000000b0: e0d5 f83d 0d0d 3abd 5b15 0a3e d08a a53b
000000c0: a292 183e 02a4 c0bd aff0 6b3e 15dd 333e
000000d0: 5d39 923d 443e d43d 556c 29bd d3ac de3d
000000e0: a99a bebd 1c74 fc3d 6898 b83d ad78 9aba
000000f0: d1f5 80bd 273d e93d e251 e43d 8834 3ebe
00000100: a1a9 f4bc 2188 263d f39e c9bb bd08 e93c
00000110: dee6 90bd 42e0 b13d 7022 b63d 7306 35be
00000120: 49e0 903e 8464 853e 5800 f53d cd6d 843e
00000130: c77e 123e 8a62 54be f86b 063e a602 5b3e
00000140: bbb3 8abc 94a4 133e 5053 aa3d 6532 bfba
00000150: bb47 a5bd 2a3b 803e 7d9e dcbd ac18 703e
00000160: 4985 a93e e4a9 b1bd 0810 2f3e c0d2 ec3d
00000170: d53e 3b3d 7699 23be 14f0 bf3d 4365 073e
00000180: 8ee2 61bd 4bb3 123d 67b0 cc3d 8cfe 6c3d
00000190: df6f 4b3d 8c6a e13d 19c5 39bd 85ea 6f3d
000001a0: 7b5f 963d 9444 6dbc e78d 2f3e bfdb b23d
000001b0: 5f9e 023e 8a6b 1dbc 21d6 343e bf13 0a3e
000001c0: 65db 073e 7bc6 f93d 684c b73d 0146 62bd
000001d0: fc23 b03d 663d 063e 290c 2cbe dca7 b93d
000001e0: 94e3 013e 3420 513e d179 7c3d f2ac 893e
000001f0: c6d0 743e 686d 283e e6b1 403d 1e8e cfbc
00000200: ebbf d23d a93d 1cbb 6caa 2fbd 59f9 d03d
00000210: 56fe b43d dbd5 35bd cbe2 4d3d ae33 0ebe
00000220: 3fa5 223d 4651 113e 6b49 1f3c a283 30be
00000230: cb8f 8ebd 57f7 2b3e ef20 b3bc a2ab bcbd
00000240: f53c d1bd f690 b4bd 33f4 bf3d 3389 4c3d
00000250: 5673 df3d fc25 34bd 299c 0abd a49f dabc
00000260: de9e 0abe 9090 bbbd dce7 7abd 31bd e9bd
00000270: b95a 6dbd 3c95 f23c afa3 05be 75fc 3fbd
00000280: ddec 0abd 4026 c93b 1875 fd3d 37cf 80bd
00000290: b6d5 a1bd 2db5 4c3e 75e8 2cbd ca29 883c
000002a0: 61e9 5b3a 91a3 aebb c31a 593e d6c4 a8bd
000002b0: b27e 8abd 28bb bdbd b779 0bbe cfb8 24be
000002c0: 46b7 cf3c ac86 953d daef 2bbb 7d5f d8bd
000002d0: 7ac4 953e 3771 b0bd d223 ab3d ac2a 9f3d
000002e0: 820c bf3d 80f7 0dbe a3cc d9bd dbcd 643d
000002f0: d863 7f3d af6c bebc df15 94bd dfdd 873d
00000300: 6caa 1f3d 1e77 c4bd 1731 9fbc 1a2e f5bd
00000310: a9bb c53d 69ae 073e 9675 fcbd 0cc5 273b
00000320: 55af d63d 5dae 39bd 7512 95bc 3d1d dd3d
00000330: af2e cb3d d909 e33d c1c7 08be 0d1f 5e3d
00000340: 9fc5 96bc d1c0 2ebe a15e c93d 0ea6 d13c
00000350: b511 393c 5515 9b3e 25a1 2c3c 9bd3 e4bb
00000360: 0ff5 6c3e e179 623d a98c 9c3d 6638 0abe
00000370: 4600 cbbd 43b8 103e f841 da3d fda8 39be
00000380: 52aa 8dbd 2a89 87bc 711c 7e3d 0493 f43d
00000390: 5a49 21bd 896b 52bd 2078 e6bd eced b13d
000003a0: b1d5 33be fe91 f1bd 1bf8 1cbe 1858 be3d
000003b0: bfba a6bd 88e3 3dbc 521b 113d acc8 b0bd
000003c0: a5ba 033e c82c 41be 04ea 113c 7e6a 2abe
000003d0: 59e6 afbd c388 693d cda6 b43d d84b c2bd
000003e0: bbe3 0f3d 0bbf 0b3e 58c2 9dbc 8dbc 4c3d
000003f0: 832a 043d abc6 df3d 67e3 2dbe d3da 8f3d

network.7.bias f4 [16]
0.18717074 0.1957631 0.14698774 -0.23231138 0.057188753 -0.010688329 0.27902162 0.0937501
-0.09875346 0.076462336 0.055744305 -0.09211227 0.18285859 -0.32490444 -0.03990627 -0.014193517
00000000: b0a9 3f3e 1f76 483e f483 163e 09e3 6dbe
00000010: c13e 6a3d 1a1e 2fbc ecdb 8e3e 0d00 c03d
00000020: 413f cabd 4998 9c3d 2454 643d 5ca5 bcbd
00000030: 483f 3b3e e059 a6be c274 23bd ed8b 68bc

network.8.weight f4 [32, 16, 3, 3]
0.2845041 0.29395276 0.11722575 0.21412334 0.15735312 -0.069237016 0.04601715 0.063328885
-0.10134393 0.07278009 -0.1552596 -0.043931443 0.10662756 -0.02488209 -0.053421676 0.03875799
0.31601134 0.059075244 0.06677261 -0.20609617 0.09914246 0.078400575 0.16058849 0.028229
-0.004606105 0.006984734 -0.05610412 0.14925168 -0.18011373 0.06484288 0.013947629 -0.292984
0.08469634 0.13773553 -0.15664764 0.18468231 -0.114031166 0.08118398 0.023425166 -0.04420645
-0.014539604 -0.08569607 -0.030323956 -0.12795539 0.15126373 -0.03995919 0.29956484 0.1952262
0.45051646 -0.02488729 0.10320521 -0.038885165 -0.10627348 0.03921857 0.34158126 0.20136356
0.12870003 0.3471786 0.26740754 0.026786633 -0.023655424 0.11931499 0.071549125 -0.14283603
-0.0349826 0.039521806 0.023346668 0.049838413 0.1138863 -0.09214941 0.069168344 0.05561456
-0.004575445 -0.04653506 -0.07220123 -0.08751261 0.013142585 -0.040560637 0.0041973926 -0.0743427
0.058751147 0.23298942 0.059392024 0.005520403 0.30106565 0.027337521 -0.06571322 0.0038596585
-0.22810611 -0.04380335 0.019634735 0.074623905 -0.05498114 0.12077921 -0.048826434 0.0079018995
0.051926266 0.039490152 0.1892393 -0.37170193 -0.17002282 -0.022672085 -0.33958885 0.10794252
0.16830783 0.0029528702 -0.09165863 0.048834406 0.092489794 0.051627703 0.19276896 0.2627956
0.17752096 -0.0053941533 0.07188335 0.049107637 0.09426111 -0.2873596 -0.056856997 0.013429882
-0.27987924 -0.032372866 0.09404926 -0.12725487 -0.08657569 -0.17862232 0.09463767 -0.19468802
-0.18232325 0.022836864 -0.154008 -0.23461962 0.17732303 -0.18602157 0.00052204303 0.19158173
-0.0023973642 -0.0056183985 0.21548091 0.06617616 0.075873196 -0.054884277 0.05826772 -0.24268745
-0.058102768 -0.04196181 -0.0053422786 0.0060279425 -0.11391575 -0.053094573 0.087219276 -0.26290888
-0.19878615 0.009956626 0.037582092 -0.017171308 -0.04954818 0.16626401 -0.29232568 -0.19932817
0.0009574828 0.024066478 0.08777186 -0.21055162 -0.0124158105 0.044989772 -0.15089996 -0.03475894
-0.081861295 -0.14879335 -0.048578955 -0.21146993 0.04726715 0.2920965 -0.38168928 0.21354769
0.12823467 -0.32811126 -0.09286304 0.22142151 0.024840102 0.03719365 0.06047143 -0.0975399
0.02020372 0.029304903 0.10795337 0.020602375 0.09393226 0.015474807 -0.21819139 0.12787004
-0.18072897 -0.007261674 0.1155023 -0.18246056 -0.08427288 0.23286684 -0.10180745 -0.23033783
-0.14118405 0.22446345 -0.11562096 -0.07104244 -0.02456879 -0.1043108 -0.16482618 -0.24170928
0.039321396 0.025857488 -0.24795942 0.09072491 0.07748011 -0.16943765 0.16934225 -0.10789349
0.016126925 0.0866235 -0.16731943 -0.049876966 -0.07246768 0.110383436 0.011813342 0.026044616
-0.018726269 -0.1472959 -0.03339859 0.17160171 -0.17558464 -0.103789486 0.21550263 0.051445223
-0.06617259 0.2030988 -0.38357458 0.13925569 0.065093406 -0.15746869 0.11610634 0.072851405
-0.017686117 -0.08711294 0.19599846 0.21200421 0.22173505 -0.0017896501 -0.07577419 -0.02835579
-0.0037384424 0.23794287 0.2750121 0.17058592 0.11315133 -0.054396927 -0.14904499 -0.056825865
00000000: 85aa 913e fa80 963e 0e14 f03d 2643 5b3e
00000010: 2d21 213e 23cc 8dbd 7b7c 3c3d 93b2 813d
00000020: 688d cfbd ba0d 953d 5ffc 1ebe 75f1 33bd
00000030: 8d5f da3d 86d5 cbbc b0d0 5abd b3c0 1e3d
00000040: 3dcc a13e e2f8 713d 14c0 883d e00a 53be
00000050: 340b cb3d 7b90 a03d 4f71 243e 8140 e73c
00000060: cfee 96bb 32e0 e43b 6fcd 65bd 6fd5 183e
00000070: bc6f 38be 58cc 843d 9984 643c 0002 96be
00000080: 4675 ad3d 8b0a 0d3e 3d68 20be 5c1d 3d3e
00000090: 2c89 e9bd c943 a63d 22e6 bf3c d311 35bd
000000a0: 8537 6ebc 6c81 afbd f269 f8bc bd06 03be
000000b0: e1e4 1a3e 3fac 23bd 9060 993e 61e9 473e
000000c0: 18aa e63e 6ee0 cbbc 415d d33d 0d46 1fbd
000000d0: e9a5 d9bd a7a3 203d bde3 ae3e 4032 4e3e
000000e0: f1c9 033e 65c1 b13e a4e9 883e a46f db3c
000000f0: 05c9 c1bc 6b5b f43d 5988 923d 9c43 12be
00000100: ea49 0fbd 9ee1 213d 8341 bf3c 5d23 4c3d
00000110: 383d e93d d4b8 bcbd 22a8 8d3d 18cc 633d
00000120: 9ded 95bb 8c9b 3ebd 3dde 93bd d039 b3bd
00000130: ff53 573c e922 26bd 488a 893b fc40 98bd
00000140: 0ba5 703d c794 6e3e 0d45 733d 7fe4 b43b
00000150: 4725 9a3e f0f2 df3c a794 86bd 53f2 7c3b
00000160: a694 69be 246b 33bd 06d9 a03c 6bd4 983d
00000170: e733 61bd 175b f73d 3afe 47bd f876 013c
00000180: a3b0 543d 6dc0 213d f2c7 413e b74f bebe
00000190: 761a 2ebe cfba b9bc 97de adbe f810 dd3d
000001a0: e358 2c3e f184 413b 85b7 bbbd 9606 483d
000001b0: 4a6b bd3d 9277 533d 3a65 453e 258d 863e
000001c0: 0ec8 353e 70c1 b0bb 9437 933d 1725 493d
000001d0: f80b c13d cc20 93be e2e2 68bd 0209 5c3c
000001e0: 554c 8fbe 6999 04bd e69c c03d 1a4f 02be
000001f0: 984e b1bd c5e8 36be 65d1 c13d 4c5c 47be
00000200: f2b2 3abe 6014 bb3c 46b4 1dbe 2040 70be
00000210: 2b94 353e 707c 3ebe b7d9 083a 002e 443e
00000220: 191d 1dbb 8b1a b8bb 07a7 5c3e 5e87 873d
00000230: 6863 9b3d 56ce 60bd 22aa 6e3d 0f83 78be
00000240: 2bfd 6dbd 26e0 2bbd 480e afbb 0c86 c53b
00000250: a94c e9bd b279 59bd 05a0 b23d fe9b 86be
00000260: 998e 4bbe 1e21 233c aeef 193d d8aa 8cbc
00000270: 08f3 4abd 1d41 2a3e b6ab 95be af1c 4cbe
00000280: 95ff 7a3a 1027 c53c bcc1 b33d d89a 57be
00000290: af6b 4bbc 3247 383d 8585 1abe 645f 0ebd
000002a0: e5a6 a7bd 495d 18be bafa 46bd 938b 58be
000002b0: 339b 413d ac8d 953e c76c c3be 3fac 5a3e
000002c0: f34f 033e 33fe a7be fa2e bebd 52bc 623e
000002d0: 787d cb3c 5e58 183d e4b0 773d 00c3 c7bd
000002e0: 4682 a53c d610 f03c a816 dd3d 50c6 a83c
000002f0: 8f5f c03d 0b8a 7d3c 906d 5fbe 5df0 023e
00000300: 0411 39be 56f3 edbb 788c ec3d f1d6 3abe
00000310: 4297 acbd a574 6e3e 6d80 d0bd aedd 6bbe
00000320: 8d92 10be bfd9 653e afca ecbd b37e 91bd
00000330: 7d44 c9bc e7a0 d5bd 32c8 28be a382 77be
00000340: 790f 213d 15d3 d33c 13e9 7dbe fbcd b93d
00000350: e4ad 9e3d 1081 2dbe 0e68 2d3e 43f7 dcbd
00000360: 9d1c 843c a967 b13d c955 2bbe ca4b 4cbd
00000370: ef69 94bd b610 e23d bf8c 413c 855b d53c
00000380: d567 99bc bdd4 16be f6cc 08bd 5cb8 2f3e
00000390: 76cc 33be 958f d4bd b9ac 5c3e 3ab8 523d
000003a0: 7f85 87bd 22f9 4f3e e363 c4be 0b99 0e3e
000003b0: b14f 853d 793f 21be 29c9 ed3d 1e33 953d
000003c0: 7ae2 90bc 4568 b2bd d2b3 483e a217 593e
000003d0: 830e 633e b192 eaba 802f 9bbd 674a e8bc
000003e0: a800 75bb 4ca7 733e 63ce 8c3e 13ae 2e3e
000003f0: e2bb e73d 50cf 5ebd 409f 18be 3dc2 68bd

network.8.bias f4 [32]
-0.05709372 -0.13550414 0.12958445 0.2767501 0.08614871 0.0086055575 -0.12925537 -0.044145137
-0.0013047546 -0.02827198 0.25253177 -0.04379022 0.039164092 0.03721631 0.18512851 -0.06708357
0.028642679 -0.016481312 0.11411548 0.004565495 -0.14807118 0.031146161 -0.014056907 0.0760846
0.18691377 0.010510895 0.0655425 0.10076226 0.18433355 -0.023761172 0.10046638 0.03606229
00000000: 1bdb 69bd 99c1 0abe c9b1 043e 30b2 8d3e
00000010: bc6e b03d 53fe 0c3c 855b 04be 88d1 34bd
00000020: 4d04 abba a49a e7bc d84b 813e 605d 33bd
00000030: 876a 203d 2170 183d 5492 3d3e 1c63 89bd
00000040: 0da4 ea3c d103 87bc 60b5 e93d 269a 953b
00000050: f99f 17be 3c26 ff3c f14e 66bc 3ed2 9b3d
00000060: 5366 3f3e e435 2c3c 253b 863d 725c ce3d
00000070: efc1 3c3e caa6 c2bc 51c1 cd3d 0db6 133d

network.9.weight f4 [32]
0.29297382 0.38901156 0.2621236 0.24105926 0.34098345 0.3244272 0.3199959 0.3099199
0.270845 0.31620044 0.3481787 0.0499778 0.19085494 0.22954342 0.06527816 0.3630887
0.13314974 0.16389383 0.29672685 0.27757713 0.47286153 0.315583 0.09062542 0.2369235
0.36074647 0.36197713 0.13121308 0.35988224 0.35449493 0.32451302 0.21128255 0.35695386
00000000: aa00 963e 862c c73e 1135 863e 3dd8 763e
00000010: 6295 ae3e 521b a63e 81d6 a33e d2ad 9e3e
00000020: 32ac 8a3e 06e5 a13e 7b44 b23e 86b5 4c3d
00000030: 7a6f 433e 6e0d 6b3e 8eb0 853d c3e6 b93e
00000040: 6858 083e c9d3 273e 95ec 973e 971e 8e3e
00000050: e81a f23e 1894 a13e d299 b93d 139c 723e
00000060: c3b3 b83e 1155 b93e b95c 063e 7c42 b83e
00000070: 5c80 b53e 9226 a63e 745a 583e a8c2 b63e

network.9.bias f4 [32]
-0.39885715 -0.31668827 -0.4563177 -0.28795326 -0.28751856 -0.3682133 -0.39070332 -0.28396967
-0.3744367 -0.5179142 -0.12782404 -0.21628593 -0.47956482 -0.4505712 -0.3532185 -0.44958046
-0.16116056 -0.5051535 -0.49066606 -0.30301642 -0.2661624 -0.2483313 -0.39895037 -0.5079285
-0.43425456 -0.19361806 -0.37556976 -0.29062945 -0.26923782 -0.27592832 -0.19617766 -0.29613504
00000000: 0137 ccbe f724 a2be 79a2 e9be 9c6e 93be
00000010: a235 93be 7486 bcbe 440a c8be 7964 91be
00000020: 2bb6 bfbe 0696 04bf 4ee4 02be 0f7a 5dbe
00000030: 8589 f5be 45b1 e6be 0ed9 b4be 692f e6be
00000040: 4607 25be bd51 01bf 9538 fbbe f824 9bbe
00000050: 7046 88be 8f4a 7ebe 3943 ccbe 9a07 02bf
00000060: 9d56 debe d043 46be ae4a c0be 62cd 94be
00000070: 8ad9 89be 7a46 8dbe cce2 48be 039f 97be

network.9.running_mean f4 [32]
12.866946 -6.7374415 -3.4722784 11.774861 18.105835 -7.873781 -11.963644 -4.1465592
-6.5571613 14.332405 -5.9854274 12.469719 6.392129 8.778658 6.740266 1.7742136
5.0343485 8.660178 2.1715896 0.8072961 -14.883341 -15.804794 9.723464 2.2813563
-13.238251 5.940817 -8.449475 -6.730524 -16.305962 -9.376883 11.195427 -0.3597765
00000000: 03df 4d41 1f99 d7c0 cf39 5ec0 d565 3c41
00000010: c0d8 9041 04f6 fbc0 166b 3fc1 9db0 84c0
00000020: 44d4 d1c0 8851 6541 9f88 bfc0 f883 4741
00000030: 528c cc40 6275 0c41 42b0 d740 6e19 e33f
00000040: 6219 a140 1790 0a41 53fb 0a40 f5aa 4e3f
00000050: 2a22 6ec1 70e0 7cc1 4f93 1b41 be01 1240
00000060: e0cf 53c1 2c1b be40 0d31 07c1 7460 d7c0
00000070: 9c72 82c1 b607 16c1 7820 3341 a034 b8be

network.9.running_var f4 [32]
32.512188 34.75965 19.03444 32.983932 58.73751 11.354539 31.07844 33.244167
30.21813 43.149574 41.277107 24.866394 16.258932 27.934944 12.167416 16.008696
12.166503 13.038475 23.876255 29.69979 68.596405 53.45021 13.999623 16.105387
52.07806 20.668015 26.505642 33.977135 42.45994 39.32346 31.464973 45.994305
00000000: 7b0c 0242 e209 0b42 8846 9841 8cef 0342
00000010: 36f3 6a42 31ac 3541 a5a0 f841 07fa 0442
00000020: bbbe f141 2a99 2c42 c21b 2542 60ee c641
00000030: 4b12 8241 c47a df41 bcad 4241 cf11 8041
00000040: ffa9 4241 989d 5041 9202 bf41 2b99 ed41
00000050: 5c31 8942 04cd 5542 75fe 5f41 d5d7 8041
00000060: ef4f 5042 1858 a541 8e0b d441 96e8 0742
00000070: fbd6 2942 394b 1d42 44b8 fb41 2bfa 3742

network.14.weight f4 [2, 384]
-0.03470746 0.034368254 -0.09321789 0.014168743 0.12620373 0.12207781 -0.028521886 -0.057316724
-0.026062986 -0.06629975 -0.006086323 0.08597236 -0.081047066 -0.025930982 0.015375958 0.015973471
-0.014405738 0.040018328 0.08605347 0.07363042 -0.04354835 0.0002449626 0.030303726 0.03505691
0.070635974 0.0015093867 0.007769493 -0.083755754 0.03892645 -0.042397972 0.086743236 0.022179354
-0.058881216 -0.013786187 0.050936386 -0.09054129 0.083143644 0.15268815 0.0791056 -0.14330934
0.047885563 -0.04793005 -0.08164884 -0.01992896 0.0790802 0.014888297 0.02464082 0.0017458965
-0.044624284 0.09145658 0.08788529 0.014171919 0.06541532 0.07647211 -0.015920429 0.054919217
-0.0055723954 0.08574132 0.015875505 0.0023442619 0.01000948 -0.0060972646 0.03799904 0.08393304
-0.00020610569 -0.01612109 0.010500555 -0.016642025 -0.025739001 0.06873321 -0.04863769 0.06785303
-0.077556945 0.023561427 -0.048541225 -0.043698944 -0.042223822 0.027150227 0.14672707 0.019069023
-0.008102774 0.051923115 -0.004241239 0.017351182 0.021763343 0.0031979599 -0.03227925 -0.03051472
0.0629249 0.060917508 0.17507178 -0.08085526 0.05753731 -0.005927089 -0.012147345 -0.008996007
0.11817861 -0.033259448 -0.07164129 0.06605728 -0.0047753607 0.055008262 0.010455169 -0.058024388
-0.04950511 -0.0100742895 -0.048733443 -0.118824296 0.07990722 -0.011764983 -0.08198394 0.053953003
0.05493148 0.08672825 0.0075206435 -0.01413779 0.086020574 -0.117906 0.053955015 0.0433753
-0.00847369 -0.00064318045 0.05928585 0.11671989 -0.07103439 0.05076457 0.066205405 0.04748905
0.016619079 -0.060993046 0.09655186 0.0714952 0.005742879 -0.020278323 -0.03668802 -0.033155352
0.06629707 0.050835524 -0.046669785 0.00097513053 -0.0036607925 0.050112855 -0.016899318 -0.0025042736
-0.030982383 -0.07096716 -0.07160537 -0.067925915 0.028284287 -0.039033554 0.055895537 -0.03649978
0.098413125 -0.013822145 0.008896229 -0.030776761 -0.07493503 -0.02669179 0.077557005 0.010263508
-0.09203952 0.0016053866 -0.0066001355 0.02064649 0.013885846 0.05185959 0.018424882 0.05203781
0.056351487 0.019062305 -0.031721756 -0.036702547 -0.0036897033 0.06498327 0.0063588363 -0.036320694
0.009750204 0.00716116 0.06275314 -0.0074267383 -0.038476847 -0.0035622506 0.047576256 -0.09892094
-0.04853573 -0.023942452 0.010850791 -0.015254748 0.043710336 -0.063442044 0.0011899422 -0.07914981
-0.00018070839 -0.028024215 0.06667034 0.009209213 0.06538938 -0.00913058 -0.016123572 0.033065204
0.010657684 0.02343417 0.0023477615 0.049083184 -0.0012782267 -0.025175352 -0.041369922 0.019916499
0.010238046 0.05066537 0.06704391 0.00438764 -0.011460077 -0.010694103 0.08335 -0.04196171
-0.008812107 0.056476966 0.008384781 0.048955016 0.013093245 0.06648532 -0.032722216 -0.105950594
-0.017162042 -0.06475251 -0.055094108 -0.025139904 -0.032750297 0.09454937 0.01946123 -0.08755886
0.11921704 0.032849807 -0.005668424 -0.00063818356 0.038016368 0.012933462 0.0080347955 -0.045560703
-0.01159402 -0.029835837 0.10131586 0.07238142 0.10778486 0.07071828 -0.016826289 0.059726164
-0.05929196 0.05772912 0.01341841 0.10296622 0.012432595 -0.042136986 0.023048278 0.06584639
00000000: 6929 0ebd bac5 0c3d 05e9 bebd 0424 683c
00000010: 8d3b 013e ee03 fa3d bba6 e9bc f1c4 6abd
00000020: 0b82 d5bc 2ac8 87bd c76f c7bb 4712 b03d
00000030: 01fc a5bd 366d d4bc 71eb 7b3c ccda 823c
00000040: 0b06 6cbc 42ea 233d cd3c b03d 8ccb 963d
00000050: c15f 32bd 536e 8039 853f f83c d697 0f3d
00000060: 98a9 903d 9dd6 c53a 3b97 fe3b 2388 abbd
00000070: 5771 1f3d 7fa9 2dbd 70a6 b13d 7ab1 b53c
00000080: 6e2d 71bd 76df 61bc aca2 503d b66d b9bd
00000090: 3747 aa3d 485a 1c3e 1e02 a23d afbf 12be
000000a0: a723 443d 4d52 44bd 8237 a7bd 0f42 a3bc
000000b0: cdf4 a13d 0bee 733c 8cdb c93c 91d6 e43a
000000c0: f4c7 36bd 964d bb3d 34fd b33d 5631 683c
000000d0: 78f8 853d 699d 9c3d 8f6b 82bc f9f2 603d
000000e0: a498 b6bb 2599 af3d 590d 823c 30a2 193b
000000f0: cdfe 233c 90cb c7bb e2a4 1b3d 16e5 ab3d
00000100: 131e 58b9 6010 84bc 850a 2c3c db54 88bc
00000110: 99da d2bc ffc3 8c3d 5038 47bd 88f6 8a3d
00000120: 2dd6 9ebd e503 c13c 2ad3 46bd aafd 32bd
00000130: e3f2 2cbd 276a de3c 9f3f 163e a436 9c3c
00000140: 7fc1 04bc 55ad 543d 17fa 8abb 1124 8e3c
00000150: 0a49 b23c dd94 513b 3f37 04bd 02fa f9bc
00000160: c5de 803d a384 793d 0446 333e 7197 a5bd
00000170: 3eac 6b3d 0738 c2bb a805 47bc fd63 13bc
00000180: a107 f23d 0f3b 08bd abb8 92bd 0a49 873d
00000190: a17a 9cbb 5850 613d 284c 2b3c fbaa 6dbd
000001a0: dfc5 4abd a20e 25bc b89c 47bd 275a f3bd
000001b0: 66a6 a33d eac1 40bc 32e7 a7bd d3fd 5c3d
000001c0: d5ff 603d 959e b13d bb6f f63b 30a2 67bc
000001d0: 8e2b b03d b378 f1bd efff 5c3d 4caa 313d
000001e0: 3bd5 0abc 1c9b 28ba b8d5 723d d60a ef3d
000001f0: 7a7a 91bd 82ee 4f3d b396 873d e183 423d
00000200: bc24 883c d8d3 79bd fbbc c53d 136c 923d
00000210: c32e bc3b ba1e a6bc 2d46 16bd e8cd 07bd
00000220: c2c6 873d e938 503d d128 3fbd e79f 7f3a
00000230: e8e9 6fbb 2343 4d3d 7070 8abc bd1e 24bb
00000240: c4ce fdbc 3b57 91bd d6a5 92bd be1c 8bbd
00000250: 73b4 e73c a6e1 1fbd b8f2 643d cb80 15bd
00000260: d28c c93d 4776 62bc 7dc1 113c 8c1f fcbc
00000270: 8977 99bd bea8 dabc 35d6 9e3d 4628 283c
00000280: 377f bcbd d66b d23a f345 d8bb d422 a93c
00000290: 7681 633c b96a 543d c7ef 963c 9925 553d
000002a0: d1d0 663d 8d28 9c3c acee 01bd 6955 16bd
000002b0: f3ce 71bb f315 853d c95d d03b 02c5 14bd
000002c0: 52bf 1f3c 2aa8 ea3b b884 803d ff5b f3bb
000002d0: e699 1dbd a674 69bb 52df 423d 1097 cabd
000002e0: 67cd 46bd f622 c4bc 84c7 313c 0def 79bc
000002f0: 9c09 333d e7ed 81bd d6f7 9b3a 4c19 a2bd
00000300: 8a7c 3db9 0a93 e5bc 768a 883d 3de2 163c
00000310: deea 853d 6e98 15bc 9515 84bc 616f 073d
00000320: 919d 2e3c 04f9 bf3c e7dc 193b 730b 493d
00000330: 2c8a a7ba 8a3c cebc 8273 29bd ed27 a33c
00000340: 7abd 273c 7e86 4f3d 514e 893d 31c6 8f3b
00000350: 0cc3 3bbc 5236 2fbc 68b3 aa3d 0be0 2bbd
00000360: a860 10bc 6454 673d 5260 093c 0e85 483d
00000370: 0d85 563c 7529 883d bb07 06bd a0fc d8bd
00000380: 6997 8cbc f79c 84bd 5caa 61bd 33f2 cdbc
00000390: 2d25 06bd 1aa3 c13d 286d 9f3c 0f52 b3bd
000003a0: 1028 f43d 858d 063d 30be b9bb c64b 27ba
000003b0: 0db7 1b3d dfe6 533c 60a4 033c dc9d 3abd
000003c0: d8f4 3dbc 496a f4bc b17e cf3d b63c 943d
000003d0: 4fbe dc3d bfd4 903d 49d7 89bc 6ca3 743d
000003e0: 20dc 72bd 5f75 6c3d e4d8 5b3c f4df d23d
000003f0: 15b2 4b3c d597 2cbd becf bc3c 79da 863d

network.14.bias f4 [2]
0.14086111 -0.1020838
00000000: e53d 103e 5011 d1bd
