Models/Model3_convolutional_SNN_8channels.pt (torch, 26994 bytes, 22 tensors)

network.0.weight f4 [8, 1, 4, 4]
0	0xbe9e8bf3	-0.30966148
1	0x3c80f5b2	0.015742157
2	0x3dd38503	0.10328104
3	0xbdd4b4ea	-0.10386069
4	0xbe9100e0	-0.2832098
5	0x3e8c9647	0.27458403
6	0xbe109366	-0.14118728
7	0xbd33bdbf	-0.043882128
8	0x3e0cd292	0.13752201
9	0xbe2077f1	-0.15670754
10	0xbe525dda	-0.20543614
11	0xbb87065a	-0.00412063
12	0x3ec11c5c	0.3771695
13	0xbe1ed7f5	-0.15512069
14	0x3e39fa1c	0.18161815
15	0x3db33843	0.087509654
16	0xbe19e167	-0.1502739
17	0xbc9a892f	-0.018864242
18	0x3cea64cc	0.028612517
19	0xbd4f82ad	-0.05066173
20	0xbea6984d	-0.3253807
21	0x3e2a9a9f	0.16660546
22	0xbdb8e647	-0.09028297
23	0xbe7b54e9	-0.2454411
24	0x3e9e0b61	0.30868056
25	0x3e2ff15f	0.1718192
26	0x3dd270f1	0.10275448
27	0x3e0648f4	0.13113767
28	0xbe794a75	-0.2434481
29	0xbe6917ea	-0.22763029
30	0xbeab3761	-0.33440688
31	0x3ea96887	0.3308756
32	0x3d8aee86	0.06783776
33	0xbd96d3a9	-0.0736459
34	0x3eac513e	0.33655733
35	0x3c315174	0.010822643
36	0x3e1c7325	0.15278299
37	0xbe918d35	-0.28428045
38	0x3e8170c3	0.25281343
39	0x3e2de73c	0.1698274
40	0x3d9c9e0d	0.07647333
41	0x3e7888a7	0.24270879
42	0xbe46514f	-0.19366954
43	0xbe1ea892	-0.15493992
44	0x3d34ba1d	0.044122804
45	0x3d125ff4	0.03573604
46	0xbeda18b3	-0.4259697
47	0x3e8dc3de	0.27688497
48	0x3cac43c3	0.021028405
49	0xbe803f81	-0.2504845
50	0x3e8f54e0	0.27994442
51	0xbdab7693	-0.083722256
52	0xbe8c580c	-0.27410924
53	0x3dec6dc0	0.11544371
54	0xbe416047	-0.18884383
55	0xbd843aa9	-0.06456501
56	0x3e2724ba	0.16322604
57	0xbc9b3d11	-0.018950017
58	0x3d6e8e61	0.05824125
59	0x3ea6b101	0.32556918
60	0x3dd1c962	0.10243489
61	0x3d77b52e	0.06047552
62	0x3bb6e685	0.0055816793
63	0xbed1948a	-0.4093364
64	0xbdcae3be	-0.099067196
65	0x3db3a11b	0.08770963
66	0x3e876e4f	0.26451346
67	0xbe975ab2	-0.29561383
68	0x3da3ff4b	0.08007678
69	0xbc7be910	-0.015375391
70	0xbe740977	-0.23831736
71	0x3e000aff	0.12504195
72	0xbe51b590	-0.20479417
73	0x3da9c2a2	0.082890764
74	0x3e38cdc3	0.18047242
75	0xbe95e356	-0.29275006
76	0x3eafdc50	0.34347773
77	0xbe124a59	-0.14286174
78	0xbe4c3c3f	-0.19944857
79	0x3e8689f1	0.26277116
80	0x3e5e7e60	0.21727896
81	0x3e754cfb	0.23955147
82	0xbef0b034	-0.47009432
83	0x3deb1d62	0.11480214
84	0xbe742f08	-0.23846066
85	0x3d221c8d	0.03957801
86	0x3d36b075	0.044601876
87	0xbccfa81e	-0.02534872
88	0x3e458d34	0.19292146
89	0xbe7bfacf	-0.24607395
90	0xbd8ad7aa	-0.06779416
91	0x3c22dba6	0.009940064
92	0xbe46176f	-0.19344877
93	0x3e59019d	0.21192022
94	0x3e569b39	0.2095765
95	0x3c9b5b50	0.01896444
96	0xbe2b4ad0	-0.16727757
97	0x3e86ddaf	0.26341006
98	0xbe4907a1	-0.19631816
99	0xbe6d9c48	-0.23204148
100	0xbdb974f7	-0.090555124
101	0x3db4d98f	0.088305585
102	0x3e840483	0.25784692
103	0xbe805d7c	-0.25071323
104	0xbda4b025	-0.080414094
105	0xbd9d515a	-0.07681532
106	0xbe2e925f	-0.17048024
107	0x3ea86d87	0.32896063
108	0x3e9441aa	0.28956348
109	0x3d1ec776	0.03876444
110	0xbe0ff015	-0.14056428
111	0x3e5902b4	0.21192437
112	0xbedb69d6	-0.42854184
113	0x3e6114c7	0.21980582
114	0xbea9b577	-0.3314626
115	0x3ebae7f8	0.36505103
116	0xbcef1bdb	-0.029188087
117	0xbe256b4f	-0.16154216
118	0x3e4200fd	0.1894569
119	0x3e27e12e	0.16394493
120	0x3dd97b3e	0.1061921
121	0x3e7071c7	0.23480903
122	0xbe8928bb	-0.26788887
123	0xbdb1c4f2	-0.086801425
124	0x3be9e0ea	0.0071374075
125	0x3e329297	0.17438732
126	0xbb669081	-0.0035181346
127	0x3e20eb7c	0.1571483

network.0.bias f4 [8]
0	0xbed0e633	-0.40800628
1	0x3c9bf3e0	0.019037187
2	0xbe9d168c	-0.30681264
3	0xbe4174fc	-0.18892282
4	0xbdb124e9	-0.08649618
5	0x3cf3b3fa	0.029748905
6	0x3d198d0b	0.037488025
7	0x3aea943a	0.0017896958

network.1.weight f4 [8]
0	0x3f83d84b	1.0300382
1	0x3f6d1d68	0.92622995
2	0x3f428d39	0.7599674
3	0x3f7c4f6b	0.9855868
4	0x3f761ba2	0.96135914
5	0x3f97c736	1.1857669
6	0x3f8beb2d	1.0931145
7	0x3f84e0b8	1.0381079

network.1.bias f4 [8]
0	0x3dca1cfa	0.09868808
1	0x3d349e08	0.044096023
2	0xbe53d62a	-0.20687166
3	0x3ed92038	0.42407393
4	0xbd8b0b13	-0.067892216
5	0xbe233aca	-0.15940395
6	0x3cfbeda5	0.030752966
7	0xbdc5c33a	-0.09656377

network.1.running_mean f4 [8]
0	0xbed15e65	-0.4089233
1	0x3cfb83d0	0.030702502
2	0xbea17228	-0.31532407
3	0xbe3e63c0	-0.18592739
4	0xbdb41b73	-0.08794298
5	0x3cc016ed	0.023448432
6	0x3cf8cf22	0.030372206
7	0xbc141b96	-0.00903978

network.1.running_var f4 [8]
0	0x411276b5	9.153981
1	0x418f2906	17.895031
2	0x417dcd09	15.862557
3	0x410f68ab	8.963054
4	0x412055e0	10.020966
5	0x4117d520	9.489532
6	0x414907a2	12.5643635
7	0x4165426e	14.328718

network.2.weight f4 [16, 8, 4, 4]
0	0xbe2c6537	-0.16835485
1	0xbc8fc407	-0.017549528
2	0x3db5ab1c	0.08870527
3	0xbd2fcb4a	-0.04291848
4	0x3ec2869f	0.37993333
5	0xbd56525c	-0.052324638
6	0x3ca5135a	0.02015083
7	0xbe044a82	-0.12919047
8	0x3e85ca3d	0.26130858
9	0xbd75a4f2	-0.059971757
10	0x3bbf55f6	0.0058391048
11	0xbe945e6f	-0.28978297
12	0xbe367e0b	-0.17821519
13	0xbdb38915	-0.08766381
14	0x3e31f708	0.17379391
15	0x3dad6c95	0.08467976
16	0xbe0287bd	-0.12747093
17	0x3e4090d9	0.18805255
18	0x3e3c00ac	0.18359631
19	0x3e0b386e	0.13595745
20	0x3eb1e24a	0.34742957
21	0x3d60c9ec	0.054880068
22	0xbcba513f	-0.02274382
23	0xbe1af0da	-0.1513094
24	0x3dd578bc	0.10423419
25	0x3db383e6	0.08765392
26	0x3cb81037	0.02246867
27	0xbe704fd4	-0.23467952
28	0x3dd4ebec	0.10396561
29	0x3e2eb835	0.17062457
30	0x3d4aff9b	0.04956017
31	0xbe0a09ae	-0.13480255
32	0x3d8f1f71	0.06988419
33	0x3db533e1	0.08847786
34	0xbe942837	-0.28936931
35	0xbcb27aca	-0.021787066
36	0xbd74e4ff	-0.0597887
37	0x3db62818	0.08894366
38	0xbe5f1dd0	-0.21788716
39	0xbe852781	-0.26006702
40	0x3d4543a9	0.04816023
41	0x3d3b1d9a	0.045682527
42	0xbc289cfd	-0.010291335
43	0x3e345e99	0.17614211
44	0x3da24b9c	0.079245776
45	0x3e8148c1	0.2525082
46	0xbd69ff50	-0.05712825
47	0xbe316146	-0.17322263
48	0xbe402cb5	-0.18767054
49	0x3e51372a	0.204312
50	0x3dadf49c	0.08493921
51	0x3e4fc806	0.20291147
52	0x3e351bb7	0.17686354
53	0xbe1d9885	-0.15390213
54	0xbdef4162	-0.11682393
55	0x3e7b06f5	0.24514373
56	0xbcb9f344	-0.022699006
57	0xbc3a1271	-0.011356936
58	0x3e14ce1a	0.14531747
59	0xbe41a73c	-0.18911451
60	0xbdfaed32	-0.12252273
61	0xbd9a06b8	-0.07520813
62	0x3d4d8167	0.050172236
63	0xbd018b00	-0.0316267
64	0x3e0cc836	0.1374825
65	0xbd62c1c6	-0.055360578
66	0xbe13dbae	-0.1443927
67	0xbe190f0d	-0.14947148
68	0xbbda9b2b	-0.0066713295
69	0xbd0a2d0c	-0.033734366
70	0xbd3669cc	-0.04453449
71	0xbdd01be6	-0.10161571
72	0xbb49b2dc	-0.0030776775
73	0xbe5ef601	-0.2177353
74	0x3c3fd3a8	0.011708178
75	0x3df603e6	0.12012462
76	0xbd8d8786	-0.06910615
77	0x3d34ee93	0.044172835
78	0xbca84508	-0.02054073
79	0xbdadee77	-0.08492749
80	0x3d79ac42	0.060955293
81	0xbddeff37	-0.10888522
82	0x3e6d3c88	0.23167622
83	0x3dd9fb38	0.10643619
84	0x3e1e2d06	0.15446863
85	0xbddfaee3	-0.10922029
86	0x3d54eb14	0.051982
87	0x3e827145	0.25477043
88	0xbd476d49	-0.048688207
89	0xbe070776	-0.1318644
90	0xbe147c2c	-0.14500493
91	0xbd488b9b	-0.048961263
92	0x3cc91655	0.024546782
93	0xbd810333	-0.06299438
94	0x3d289f23	0.04116739
95	0x3e6f7e1d	0.23387952
96	0xbd111a78	-0.035425633
97	0xbe024477	-0.1272143
98	0x3ddb3196	0.10702817
99	0xbe020725	-0.12698038
100	0x3e708ca1	0.23491146
101	0xbdfa407f	-0.12219333
102	0xbc0522db	-0.008125986
103	0x3e79fadc	0.24412102
104	0x3d7ca07d	0.06167649
105	0xbe1f16d0	-0.15536046
106	0xbd07d743	-0.033164274
107	0xbeb4d4a4	-0.35318482
108	0xbe019fc8	-0.12658608
109	0xbdbcbdd1	-0.09215892
110	0x3d067b9f	0.032832738
111	0x3d852b47	0.06502395
112	0x3cbcecf7	0.023062212
113	0xbe0165be	-0.12636468
114	0xbdee4802	-0.11634828
115	0x3dad15bc	0.08451411
116	0x3e2d2926	0.16910228
117	0xbd110a96	-0.035410486
118	0xbd954576	-0.07288639
119	0xbdd1546e	-0.10221182
120	0x3eb67402	0.35635382
121	0xbc9431f2	-0.018090222
122	0xbc993e2b	-0.018706402
123	0x3de120e9	0.10992605
124	0xbd3df3f9	-0.04637525
125	0x3e0768c7	0.13223563
126	0x3df42fdd	0.11923192
127	0xbcb031a7	-0.021508051
128	0x3d60e91d	0.054909814
129	0xbe5d9c08	-0.21641552
130	0xbe8e0624	-0.2773906
131	0x3e56d824	0.20980889
132	0xbd08b535	-0.033375937
133	0x3e39f2c3	0.18159012
134	0xbd5834e0	-0.0527848
135	0x3de79078	0.11306852
136	0xbd3dafb7	-0.046310153
137	0x3e13b0ec	0.14422959
138	0x3d6e4d9a	0.058179475
139	0x3d396e5d	0.045271266
140	0xbe0d6e44	-0.13811594
141	0xbd9e1c27	-0.077202134
142	0x3e2a8435	0.16651995
143	0x3e74eb42	0.23917869
144	0xbe68d170	-0.22736144
145	0xbe844bc3	-0.25839052
146	0xbe63b17e	-0.22235677
147	0x3dec37a2	0.115340486
148	0x3d061fb3	0.032745074
149	0x3dc38d74	0.095484644
150	0x3e62b7b4	0.2214039
151	0x3e954ad5	0.29158655
152	0x3dcabbb7	0.09899085
153	0xbdf1297b	-0.1177549
154	0xbe4b6f02	-0.19866565
155	0x3dffc542	0.12488796
156	0xbdb5c00a	-0.08874519
157	0x3d30bf8d	0.043151427
158	0x3d26e60a	0.040746726
159	0xbdfb0b26	-0.12257986
160	0x3d9a2e53	0.07528367
161	0x3c36131b	0.011112954
162	0x3de14c9a	0.11000939
163	0xbd3e33f9	-0.046436284
164	0x3e27f4f2	0.16402033
165	0xbea00ea3	-0.31261167
166	0x3cee1045	0.029060492
167	0x3d289843	0.041160833
168	0x3de5a68d	0.11213408
169	0xbdd0880e	-0.101822
170	0x3c215b4e	0.009848429
171	0x3dba4247	0.09094673
172	0x3d4b49b3	0.049630832
173	0xbe6f199a	-0.2334961
174	0xbd93923a	-0.07205625
175	0x3e26671e	0.16250274
176	0xbd8cd1d8	-0.06875962
177	0xbe7c0d3d	-0.24614425
178	0xbd4fc095	-0.05072077
179	0x3dfc38fe	0.12315558
180	0x3d2508f1	0.04029173
181	0x3ec52698	0.38506007
182	0x3e92447f	0.28567883
183	0xbd352bbb	-0.044231158
184	0xbd833d22	-0.064081445
185	0xbc6c77d9	-0.014432871
186	0x3dbeffa8	0.09326106
187	0xbe0c40a9	-0.13696541
188	0xbe711b73	-0.23545627
189	0x3db955b2	0.09049548
190	0x3d473444	0.04863383
191	0xbda6ec29	-0.08150513
192	0x3e573023	0.21014456
193	0xbc4ed4bf	-0.012623965
194	0xbaeb5ead	-0.0017957293
195	0x3e1de737	0.15420233
196	0x3dd4c9e7	0.10390072
197	0xbe025198	-0.12726438
198	0xbdb35d61	-0.08758045
199	0x3ee0a991	0.4387937
200	0xbe1ca3c1	-0.15296842
201	0xbd8fefaf	-0.07028138
202	0xbd9104dc	-0.07081005
203	0xbcd3faf8	-0.025876507
204	0x3d094d76	0.033521138
205	0xbcb3614e	-0.021896984
206	0x3e8a701a	0.27038652
207	0xbe0a47e7	-0.13503991
208	0x3daa2140	0.08307123
209	0x3e774020	0.24145555
210	0x3d9f3c07	0.07775121
211	0xbd9832a3	-0.07431533
212	0x3ca71928	0.020397738
213	0x3e17e8f2	0.14834955
214	0xbdc61d9d	-0.09673617
215	0xbe41ae21	-0.18914081
216	0x3d4d2c21	0.050090913
217	0xbddbddd9	-0.107356735
218	0xbdf369f5	-0.11885444
219	0x3e0a4610	0.13503289
220	0xba976b6d	-0.0011552401
221	0xbca83d47	-0.020537032
222	0x3c07a5bf	0.008279263
223	0x3e3c8059	0.18408336
224	0x3ce7cbae	0.028295364
225	0xbd89fe4d	-0.06737957
226	0xbe821eb6	-0.25414056
227	0x3eb8567d	0.36003485
228	0xba1af57b	-0.0005911213
229	0xbd398eda	-0.04530225
230	0x3d65b112	0.05607707
231	0x3da820cb	0.0820938
232	0xbda93e5f	-0.082638495
233	0xbe5dc496	-0.21657023
234	0x3deae0d0	0.11468661
235	0x3e1f8abb	0.15580265
236	0xbcdd093e	-0.026981946
237	0x3bb15f7c	0.005412994
238	0xbcfce430	-0.030870527
239	0x3d982731	0.0742935
240	0xbe374f87	-0.17901431
241	0xbe2daaf8	-0.1695975
242	0xbe62aec6	-0.22136983
243	0xbe20b758	-0.1569494
244	0x3d8e8c41	0.06960345
245	0xbd6b4fe7	-0.057449248
246	0xbbd3d91c	-0.0064650904
247	0xbdf64029	-0.12023956
248	0xbd37c252	-0.044863053
249	0x3d566615	0.052343447
250	0x3dd245fd	0.102672555
251	0x3dc4a073	0.09600916
252	0xbe590d8c	-0.21196574
253	0xbdf4d0fa	-0.119539216
254	0x3d24b043	0.04020716
255	0x3e80096f	0.25007197

network.2.bias f4 [16]
0	0x3e6efc20	0.23338366
1	0xbccd84c2	-0.025087718
2	0x3d994ae6	0.07484989
3	0xbdd7632a	-0.10516961
4	0x3e2568f7	0.16153322
5	0x3e3e669e	0.18593833
6	0x3db2df43	0.0873399
7	0xbe000839	-0.12503137
8	0x3d7e3430	0.06206149
9	0xbd9e9917	-0.07744043
10	0x3dfd7418	0.12375659
11	0xbdf12c13	-0.117759846
12	0x3e08f49b	0.1337456
13	0x3ca80205	0.020508775
14	0x3e274f6f	0.16338895
15	0x3c8ff810	0.01757434

network.3.weight f4 [16]
0	0x3fc75909	1.5574046
1	0x3ff9154d	1.9459625
2	0x4002eea9	2.0458167
3	0x400f8115	2.2422535
4	0x3fd1ad8d	1.6381088
5	0x3ff13abf	1.8846053
6	0x4008c3b9	2.136946
7	0x3fd0c79e	1.6310918
8	0x4017939e	2.3683848
9	0x3fc20566	1.5157897
10	0x3fd02e18	1.6264067
11	0x40023753	2.0346267
12	0x3fcd8264	1.6055417
13	0x3fcf39e1	1.6189538
14	0x3fcccc35	1.5999819
15	0x3fd00a46	1.6253135

network.3.bias f4 [16]
0	0xbf05df25	-0.52293617
1	0xbf36ef35	-0.7145875
2	0xbe995741	-0.29949382
3	0xbe62b420	-0.22139025
4	0xbf0cae0d	-0.5495308
5	0xbdff11e0	-0.12454581
6	0xbe889cce	-0.26682132
7	0xbee05422	-0.43814188
8	0xbd976795	-0.073928036
9	0xbef89e11	-0.48558095
10	0xbef76144	-0.48316395
11	0xbe98155b	-0.29703793
12	0xbf1fcea4	-0.62424684
13	0xbee7041f	-0.45120332
14	0xbef3121d	-0.47474757
15	0xbef601aa	-0.48048145

network.3.running_mean f4 [16]
0	0x3e9e87d5	0.30963007
1	0x3cc9f149	0.024651187
2	0x3f83c08f	1.0293139
3	0x3d0a5690	0.03377396
4	0x3efc8458	0.4931972
5	0x3e5720d2	0.21008614
6	0x3e839541	0.2569981
7	0x3c984bee	0.018590894
8	0x3e99216c	0.2990831
9	0xbeceec61	-0.40414718
10	0x3e54a5a2	0.20766309
11	0xbc9c2eb2	-0.019065235
12	0x3ec1460a	0.37748748
13	0x3d0cdc65	0.034389872
14	0x3ea1acb4	0.31577075
15	0x3f161d74	0.5863869

network.3.running_var f4 [16]
0	0x40ab333a	5.3500032
1	0x40ca5321	6.3226476
2	0x40b72e04	5.724367
3	0x408c230a	4.379277
4	0x407a375e	3.9096293
5	0x40d8f1ce	6.779517
6	0x40b003a6	5.5004454
7	0x40ba8bfe	5.829589
8	0x40d7b84e	6.741248
9	0x40d212dc	6.564802
10	0x40ba072c	5.8133755
11	0x40be253a	5.9420443
12	0x409698b1	4.706139
13	0x40c272e5	6.076525
14	0x40a7001f	5.218765
15	0x40932bb3	4.5990844

network.7.weight f4 [16, 16, 1, 1]
0	0x3e6d0fa1	0.23150493
1	0xbe2c4329	-0.16822495
2	0x3e362c5d	0.17790361
3	0xbe0a2aee	-0.13492939
4	0x3d9df4c9	0.07712705
5	0xbd06a704	-0.032874122
6	0x3cc3dd0b	0.023909112
7	0xbebec47b	-0.37259278
8	0x3df73e84	0.12072471
9	0xbe00bb32	-0.1257141
10	0x3d39e13c	0.045380816
11	0x3d9f5f4a	0.07781847
12	0x3cd2fe85	0.02575613
13	0xbd8d019d	-0.06885073
14	0xbe9122ba	-0.28346807
15	0xbe15d177	-0.14630686
16	0xbe3f8abb	-0.18705265
17	0x3c865468	0.01639767
18	0xbe9c9667	-0.30583498
19	0x3e512a49	0.20426287
20	0xbbb36b9e	-0.0054754755
21	0xbdb70b93	-0.089377545
22	0x3e4de2a8	0.20105994
23	0xbe8ddade	-0.27706045
24	0xbddbaea1	-0.10726667
25	0xbeb7c700	-0.35894012
26	0x3e64d689	0.22347464
27	0x3d82fb41	0.06395579
28	0xbce21ed5	-0.027602592
29	0xbd8c4bb3	-0.06850376
30	0x3e42ca24	0.19022423
31	0x3e3d67dc	0.1849665
32	0xbe59ae59	-0.21257915
33	0xbdfc25bd	-0.123118855
34	0xbd613467	-0.054981615
35	0x3d2f88f2	0.04285521
36	0xbe48b015	-0.1959842
37	0x3db587fd	0.08863828
38	0xbe44f3e3	-0.1923366
39	0x3e5b8caf	0.21440385
40	0xbe1af90b	-0.15134065
41	0xbf0dfca4	-0.55463624
42	0xbe898772	-0.2686115
43	0xbb8d0caa	-0.004304488
44	0xbec8442f	-0.3911452
45	0xbc919615	-0.01777176
46	0x3d905515	0.07047478
47	0xbdeae462	-0.11469342
48	0x3e01f38a	0.12690559
49	0xbe42ba90	-0.1901648
50	0x3db2accd	0.087243654
51	0x3e64c8e7	0.22342263
52	0xbeace953	-0.33771762
53	0xbe082c72	-0.13298205
54	0x3d697baa	0.0570027
55	0x3e6dcb42	0.23222068
56	0x3afa9cc7	0.001912021
57	0x3c8399b1	0.016064497
58	0xbeac3ad3	-0.3363863
59	0xbdc46a40	-0.09590578
60	0xbe473fcc	-0.1945793
61	0xbed28987	-0.4112055
62	0x3cd83d3f	0.026396392
63	0xbcde7b53	-0.027158415
64	0xbd83f7be	-0.064437374
65	0x3ee5d8e0	0.44892025
66	0xbcc84fe4	-0.024452157
67	0xbe3c71d1	-0.18402793
68	0x3ead58af	0.33856723
69	0x3ea3c626	0.31987113
70	0xbe468be5	-0.19389303
71	0x3daac612	0.0833856
72	0x3e9825d1	0.29716352
73	0x3d96cb5a	0.07363005
74	0xbc926381	-0.017869713
75	0xbdc2357e	-0.09482859
76	0x3d13a4a9	0.036045704
77	0x3f0dbd0c	0.5536659
78	0xbe0cc46c	-0.13746804
79	0x3d61af91	0.055099074
80	0xbd9f1a58	-0.077686965
81	0x3e20a88f	0.156893
82	0x3d15911e	0.036515348
83	0xbe1f3937	-0.1554917
84	0xbdbaf849	-0.09129388
85	0x3de383d3	0.11109128
86	0xba97fbfc	-0.0011595483
87	0x3e3693f2	0.17829874
88	0xbeb55c8c	-0.3542217
89	0xbe447cae	-0.19188187
90	0x3dd9a186	0.10626511
91	0x3dd36028	0.10321075
92	0xbe23864a	-0.15969196
93	0xbe4a6a86	-0.19767198
94	0xbe1feb34	-0.15617067
95	0xbd0f2197	-0.034944143
96	0xbe56fe24	-0.20995384
97	0x3d4c9478	0.04994628
98	0xbddca8a4	-0.10774353
99	0xbe72e407	-0.23719798
100	0x3eb13564	0.34611046
101	0xbe48a282	-0.19593242
102	0x3ddbf3eb	0.10739883
103	0xbe89244d	-0.26785508
104	0x3dc8f1ea	0.098117664
105	0x3ee90dbe	0.45518297
106	0x3dcf2ee2	0.10116364
107	0xbe7f7369	-0.24946369
108	0x3ea887f5	0.32916227
109	0x3e9becb7	0.30454037
110	0xbe277fe6	-0.16357383
111	0x3e3fa293	0.18714361
112	0x3e5339ba	0.2062749
113	0x3d7c4af4	0.06159492
114	0x3e4d51eb	0.2005078
115	0x3db33a30	0.08751333
116	0x3e8355fd	0.2565154
117	0x3dfe1b47	0.124075465
118	0x3e1c49c7	0.15262519
119	0x3e3d39a5	0.18479021
120	0x3dc2466d	0.09486089
121	0xbbba666c	-0.005688479
122	0x3e982d6f	0.29722163
123	0x3e0c0b3c	0.1367616
124	0x3d9c6c9b	0.07637902
125	0x3eb2e619	0.34941176
126	0xbe468440	-0.19386387
127	0xbeb303f4	-0.34963953
128	0xbdf8241c	-0.12116262
129	0x3ebfaac4	0.3743497
130	0xbe239dc4	-0.15978152
131	0x3dd6c8c3	0.10487511
132	0x3da7173e	0.0815873
133	0xbe30169a	-0.17196122
134	0x3f0877df	0.5330791
135	0x3e953f75	0.29149976
136	0xbdf8ea62	-0.1215408
137	0xbde83d0d	-0.113397695
138	0x3ee071f1	0.4383693
139	0x3d806247	0.06268745
140	0xba89b088	-0.0010504881
141	0xbd7b3338	-0.061328143
142	0x3e82eac3	0.25569734
143	0x3e3b6357	0.18299614
144	0xbecf1184	-0.4044305
145	0xba14173d	-0.0005649215
146	0xbdf17351	-0.11789573
147	0xbe4462e0	-0.19178343
148	0x3e8ea7e0	0.27862453
149	0xbe97a8f7	-0.29621097
150	0xbe0024a2	-0.12513974
151	0xbe81c825	-0.2534801
152	0xbe27ecb0	-0.16398883
153	0xbd9f5cc4	-0.077813655
154	0x3d0fbaa0	0.03509009
155	0x3e094006	0.13403329
156	0xbd6e5347	-0.05818489
157	0x3d966341	0.0734315
158	0x3d0230f9	0.031784985
159	0x3e52e5f6	0.20595536
160	0xbddac63d	-0.10682342
161	0x3ef058ed	0.46942845
162	0xbe88a406	-0.2668764
163	0x3eae5172	0.34046513
164	0xbe73a249	-0.23792376
165	0x3e62cb6c	0.22147912
166	0x3e96de0b	0.2946628
167	0x3e9bd0a2	0.30432612
168	0xbd3712df	-0.04469573
169	0xbe3c3a13	-0.18381529
170	0x3e9a8393	0.30178508
171	0x3ebedede	0.3727941
172	0xbe7dbac1	-0.24778272
173	0x3de720d6	0.1128556
174	0x3eb39c59	0.3508022
175	0x3e0f9a18	0.14023626
176	0x3dcad75a	0.09904356
177	0x3e95289a	0.2913254
178	0x3e698945	0.2280627
179	0xbd140eaa	-0.036146797
180	0xbd2d8fb5	-0.042373378
181	0xbd64f427	-0.055896904
182	0x3e855771	0.26043275
183	0xbd90bb34	-0.07066956
184	0x3e60f367	0.2196785
185	0xbcc96e39	-0.024588691
186	0x3cb549d1	0.022129925
187	0xbe380d5c	-0.17973846
188	0x3d202cc6	0.0391052
189	0x3e16d823	0.14730887
190	0x3bdc0f54	0.0067156944
191	0x3d0631dd	0.032762397
192	0xbd8253fe	-0.063636765
193	0x3d7bd7e9	0.061485205
194	0x3e0e559b	0.13899843
195	0xbc8b9379	-0.017038094
196	0x3e0a32d5	0.13495953
197	0x3e33e44a	0.17567554
198	0x3e94ab2d	0.29036847
199	0xbda1ecaf	-0.07906472
200	0x3ea1b332	0.31582028
201	0x3ddfc35e	0.10925935
202	0x3ea99f15	0.33129182
203	0xbe975a20	-0.29560947
204	0xbee5473f	-0.4478092
205	0x3e213e44	0.15746409
206	0x3d93390c	0.07188615
207	0x3ed2eaf9	0.41194895
208	0xbe148e00	-0.14507294
209	0x3d2cb93a	0.042168833
210	0xbe2653b6	-0.1624287
211	0x3e93d35e	0.28872198
212	0x3e294f1f	0.16534089
213	0x3d55c3a2	0.052188523
214	0xbe21bc67	-0.15794526
215	0xbd297b83	-0.041377556
216	0xbd0b2445	-0.033970136
217	0xbe1f2193	-0.15540151
218	0xbe8793de	-0.2648
219	0x3e12d639	0.14339532
220	0xbe56bce4	-0.20970494
221	0x3d8b0d5b	0.06789657
222	0x3e77f7da	0.24215642
223	0xbde9447a	-0.11390014
224	0xbeb33a2f	-0.35005328
225	0xbe8f27f1	-0.2796016
226	0xbdc541a9	-0.09631664
227	0xbd862b75	-0.065512575
228	0x3e3de3bf	0.1854391
229	0xbe9dbd50	-0.30808496
230	0x3e41b8a1	0.18918087
231	0x3da12a86	0.07869439
232	0xbdbbaf95	-0.09164349
233	0xbe88da6f	-0.26729152
234	0xbb63e5ac	-0.0034774346
235	0xbda42d51	-0.08016456
236	0x3eee83c4	0.46584904
237	0x3e1f8404	0.15577704
238	0xbe573366	-0.210157
239	0x3e30a188	0.1724912
240	0x3c88b583	0.016688114
241	0x3ec948bd	0.39313307
242	0xbe9a3d14	-0.30124724
243	0x3cbc26c4	0.022967704
244	0x3d8c6c97	0.06856649
245	0xbe1d153c	-0.15340132
246	0xbe7e35a4	-0.2482515
247	0xbe179171	-0.14801575
248	0x3dfc0fd4	0.123077065
249	0xbe207734	-0.15670472
250	0xbd7a7a68	-0.061151892
251	0xbd909a57	-0.07060688
252	0xbe91b2b9	-0.28456667
253	0x3e841a69	0.258014
254	0xbe236017	-0.15954624
255	0xbdbad68f	-0.09122955

network.7.bias f4 [16]
0	0x3d144bb9	0.036205027
1	0x3e93a674	0.2883793
2	0xbe53e386	-0.20692262
3	0xbe101bba	-0.14073077
4	0xbdfb0873	-0.12257471
5	0x3d886a78	0.06660932
6	0xbd64ba7a	-0.0558419
7	0x3c78c4fa	0.015183682
8	0x3ddf5921	0.10905672
9	0xbdbd5845	-0.09245352
10	0xbc9fbedc	-0.019500189
11	0xbe959b9e	-0.2922029
12	0x3e4bfd9a	0.1992096
13	0xbe985b02	-0.29756933
14	0x39a90b18	0.00032242457
15	0x3db482c9	0.08814008

network.8.weight f4 [32, 16, 1, 1]
0	0xbd591731	-0.053000633
1	0xbe53027c	-0.20606416
2	0x3e19e546	0.15028867
3	0x3ecc6b99	0.3992584
4	0xbe9d66cd	-0.30742493
5	0xbdde0913	-0.108415745
6	0xbe1b946e	-0.1519334
7	0xbeb6c717	-0.35698768
8	0xbda011e8	-0.07815915
9	0x3db2e8ca	0.08735807
10	0xbeadd82c	-0.3395399
11	0xbe8d1601	-0.2755585
12	0xbe64842f	-0.22316049
13	0xbb86c25b	-0.0041125244
14	0x3dfbe318	0.12299174
15	0xbdb66519	-0.089060016
16	0x3e0a36c9	0.13497461
17	0x3da4e3c4	0.08051255
18	0x3d6d0575	0.057866532
19	0x3d1380ab	0.03601138
20	0x3e15aa86	0.14615831
21	0xbe266ff1	-0.1625364
22	0x3d9c1280	0.07620716
23	0xbdef1421	-0.11673761
24	0xbec8e888	-0.39239907
25	0x3da058f8	0.078294694
26	0xbf1eede3	-0.62081736
27	0x3d38d666	0.04512634
28	0x3c84d60f	0.016215352
29	0xbe20e3cf	-0.15711902
30	0xbdc4727e	-0.0959215
31	0xbd28291c	-0.04105483
32	0xbd457b9e	-0.048213594
33	0x3d871a40	0.06596804
34	0x3ea3788b	0.31927904
35	0x3e9398e4	0.28827584
36	0xbde1a5c7	-0.11017948
37	0x3e035817	0.12826572
38	0xbe700cbf	-0.23442362
39	0xbd4b320e	-0.049608283
40	0x3ecef407	0.40420553
41	0xbdb0e12b	-0.086366974
42	0x3dbb8798	0.09156722
43	0xbdbac84e	-0.09120236
44	0x3e51e6a0	0.20498133
45	0xbda3a8ee	-0.07991205
46	0xbd1a3f89	-0.037658248
47	0x3d1dbfb4	0.0385129
48	0xbd8606ee	-0.065442905
49	0x3de865f9	0.11347575
50	0x3e99a60f	0.30009505
51	0xbe9f4109	-0.31104305
52	0xbde733ec	-0.112892
53	0xbe366950	-0.17813611
54	0xbd3e3a1d	-0.04644214
55	0x3c3cea2e	0.011530442
56	0xbb002e63	-0.0019558899
57	0x3ed4ee3a	0.41588002
58	0xbdb0f40d	-0.08640299
59	0xbe56a084	-0.2095967
60	0xbcf97172	-0.030449603
61	0x3dbd6f16	0.092497036
62	0x3e9bbe41	0.3041859
63	0x3e99842f	0.2998366
64	0x3e4f38cf	0.20236515
65	0xbcaefa76	-0.021359663
66	0xbe127f9a	-0.14306489
67	0x3d64c6af	0.055853542
68	0xbe59e1fc	-0.21277612
69	0x3e559306	0.20856866
70	0x3dfd5d46	0.12371306
71	0xbe632a9e	-0.22184226
72	0x3b992b54	0.0046743546
73	0x3e7f74c9	0.24946894
74	0xbe9c75f8	-0.30558753
75	0xbd9def1c	-0.07711622
76	0x3e13c8b5	0.14432032
77	0xbeb533c8	-0.35391068
78	0x3eca0c07	0.394623
79	0x3e5ac6ff	0.21364973
80	0xbe0320ab	-0.1280543
81	0xbea49437	-0.3214433
82	0x3e1258cc	0.14291686
83	0x3cf25a4f	0.029584078
84	0xbcd2fee0	-0.0257563
85	0xbd8115da	-0.06302996
86	0xbd07975b	-0.03310333
87	0xbe1e2385	-0.15443237
88	0xbeb9c2dd	-0.3628148
89	0xbe7ae839	-0.24502648
90	0xbe833605	-0.2562715
91	0xbd78aec7	-0.060713556
92	0xbe08554e	-0.13313791
93	0xbe5594fa	-0.20857611
94	0xbe537813	-0.20651273
95	0x3e846dce	0.25865024
96	0xbe52472a	-0.2053496
97	0x3e876145	0.26441398
98	0x3eab5fe7	0.33471605
99	0x3cd19132	0.02558193
100	0x3e2320a2	0.15930417
101	0x3e812f18	0.25231242
102	0x3df758ca	0.12077482
103	0xbe1494d1	-0.14509894
104	0x3e04cfb5	0.12969859
105	0x3c3d6d50	0.011561707
106	0x3e251575	0.16121466
107	0xbeb53fe9	-0.35400322
108	0xbe10c939	-0.1413926
109	0x3dec26f9	0.11530871
110	0x3e8038b5	0.25043264
111	0x3e08805b	0.13330214
112	0xbd2e41b0	-0.042543113
113	0xbdb08bfc	-0.0862045
114	0x3edd3089	0.43201092
115	0x3dc1573b	0.09440466
116	0xbe7d8f07	-0.24761592
117	0x3e18b818	0.14913976
118	0xbea5e366	-0.32400054
119	0xbdeff261	-0.11716152
120	0x3b9f8ee7	0.00486933
121	0xbd6ee9b1	-0.058328334
122	0x3eb9bc51	0.36276487
123	0x3e19ae29	0.15007843
124	0x3da6914a	0.081331804
125	0xbda3a96e	-0.079913005
126	0xbd4b7197	-0.049668875
127	0x3e196f76	0.14983925
128	0x3e8a647c	0.27029788
129	0x3be660c5	0.007030579
130	0x3db497db	0.08818027
131	0xbe554998	-0.20828855
132	0xbb8032bf	-0.0039122994
133	0x3c781480	0.015141606
134	0xbddd44f5	-0.10804168
135	0x3e0b1f58	0.13586175
136	0xbd9e601b	-0.077331744
137	0x3e84d746	0.2594549
138	0xbf01ed48	-0.5075269
139	0x3d95ae81	0.073086746
140	0xbe24264e	-0.16030237
141	0xbd81ed1f	-0.063440554
142	0x3e14185f	0.14462422
143	0x3e621968	0.22080004
144	0x3d9ba492	0.07599749
145	0x3ce3cb8f	0.027807025
146	0x3e0fb8ff	0.14035414
147	0x3ee68673	0.45024452
148	0xbe3ec0c3	-0.1862822
149	0x3d3625fc	0.04446982
150	0x3d27f737	0.041007247
151	0xbe38b1d5	-0.18036588
152	0xbe97f9bf	-0.2968273
153	0xbc365c3f	-0.011130392
154	0xbe23d708	-0.15999997
155	0xbe94cc23	-0.29061994
156	0xbe9f96ca	-0.3116973
157	0x3d9944c9	0.07483823
158	0xbe16bdfc	-0.14720911
159	0xbe459937	-0.19296728
160	0x3e8a26c3	0.26982698
161	0xbe45db42	-0.19321921
162	0xbcbdf5ac	-0.023188435
163	0xbe0c4b01	-0.13700487
164	0x3e4186da	0.18899098
165	0x3e136600	0.14394379
166	0x3ea20a02	0.3164826
167	0x3db3121f	0.08743691
168	0xbea3fca9	-0.32028702
169	0x3e2d888f	0.16946624
170	0xbe1926e2	-0.14956239
171	0x3cc12af7	0.023580058
172	0x3d9bd66a	0.076092556
173	0x3b365d63	0.002782666
174	0xbd040f39	-0.03224108
175	0x3e7826b0	0.24233508
176	0x3e4fe6e0	0.20302916
177	0xbe046051	-0.12927367
178	0x3ca965fb	0.02067851
179	0xbe26d2c9	-0.16291346
180	0x3a936dcb	0.0011247931
181	0x3e528256	0.20557532
182	0x3eb04893	0.3443037
183	0x3d25950c	0.040425345
184	0x3e39e33e	0.18153092
185	0x3c135793	0.008993047
186	0xbe0f696c	-0.14005059
187	0x3d82cd52	0.06386818
188	0x3e8b02a6	0.27150458
189	0xbe9e97e8	-0.3097527
190	0x3ec9b784	0.39397824
191	0xbcbdd7a9	-0.023174124
192	0xbd4252df	-0.047442313
193	0x3c84460b	0.01614668
194	0xbcb51ba9	-0.022107916
195	0xbd5d0d0a	-0.053967513
196	0x3e3040f4	0.17212278
197	0x3cc0f98d	0.023556495
198	0x3ec04000	0.37548828
199	0x3dfcfaa8	0.123524964
200	0xbc32fe7a	-0.01092493
201	0x3cedeb10	0.02904275
202	0xbe79f57c	-0.24410051
203	0x3e842b7c	0.25814426
204	0x3e9c2b24	0.30501664
205	0xbe693f7d	-0.22778125
206	0x3e01ae8b	0.12664239
207	0xbde42401	-0.1113968
208	0x3b0c0787	0.0021366791
209	0x3e19351e	0.14961669
210	0xbd88e7e6	-0.06684856
211	0x3dbea08e	0.09307967
212	0xbed3e3f8	-0.41384864
213	0x3e752df9	0.23943318
214	0x3d6e3a3b	0.058161
215	0xbe92d293	-0.2867628
216	0xbe4e0732	-0.20119932
217	0x3e83bed2	0.25731522
218	0xbeabf177	-0.3358266
219	0x3cda66bc	0.026660316
220	0xbd903dc3	-0.0704303
221	0xbe4a0cd1	-0.19731452
222	0x3dd7914b	0.10525759
223	0xbe8f9e20	-0.28050327
224	0xbdb914eb	-0.09037193
225	0xbeb26e5c	-0.34849823
226	0xbcfa6d86	-0.030569803
227	0xbea1bb8c	-0.315884
228	0x3ddc35f4	0.10752478
229	0x3ea7fd9c	0.32810676
230	0xbe18e976	-0.14932808
231	0x3da2f824	0.07957485
232	0xbe2827b9	-0.16421403
233	0xbccf7d91	-0.02532843
234	0xbe05833b	-0.13038342
235	0x3d276321	0.04086602
236	0x3e90f4a8	0.28311658
237	0xbe8adc2e	-0.2712111
238	0xbe74a8ef	-0.23892568
239	0xbdc0aed0	-0.09408343
240	0x3d8a7e67	0.067623906
241	0x3e6795a0	0.22615671
242	0x3eadcba9	0.33944443
243	0x3d80d065	0.06289748
244	0xbe1fcb38	-0.15604866
245	0x3e367ab9	0.17820252
246	0xbec0fccf	-0.37692878
247	0x3cf27181	0.029595139
248	0x3d3ef1d3	0.04661734
249	0xbc47273e	-0.012155352
250	0x3e226975	0.15860541
251	0x3d82dabb	0.06389376
252	0x3e82890c	0.25495183
253	0xbdb55d1f	-0.08855652
254	0xbe43a3da	-0.19105473
255	0x3e8b5f05	0.27220932

network.8.bias f4 [32]
0	0xbde5f730	-0.11228788
1	0xbd4bdc9d	-0.04977094
2	0x3d4476ab	0.047964733
3	0x3e29ad08	0.16569912
4	0x3d9ae150	0.07562506
5	0xbebd5e23	-0.36985883
6	0xbdcfd821	-0.10148645
7	0x3e32e506	0.17470178
8	0xbe98640f	-0.2976384
9	0x3d9f4927	0.077776246
10	0x3db4ada9	0.088221855
11	0x3d832de5	0.06405238
12	0xbe3bbfb4	-0.18334848
13	0xbe327ddb	-0.17430823
14	0xbe3e4c25	-0.18583734
15	0xbd647525	-0.05577578
16	0x3e31b7f5	0.1735533
17	0xbd9be3ba	-0.07611795
18	0x3cb2a625	0.02180774
19	0xbe430578	-0.19045055
20	0x3ecbffd4	0.3984362
21	0x3edd822c	0.43263376
22	0x3e910093	0.2832075
23	0xbdae672a	-0.08515771
24	0x3c881e8a	0.016616125
25	0xbe560f07	-0.2090417
26	0xbe2c4651	-0.16823699
27	0x3ece5321	0.40297797
28	0x3dbb5c18	0.09148425
29	0x3e540929	0.2070662
30	0x3d15b449	0.036548886
31	0x3e18ce38	0.14922416

network.9.weight f4 [32]
0	0x3f5e1009	0.8674322
1	0x3f482285	0.7817767
2	0x3f474ef9	0.7785488
3	0x3f4bc6a9	0.79600006
4	0x3f5ab4a2	0.85431874
5	0x3f73eb5b	0.95281
6	0x3f5ce1ca	0.86282027
7	0x3f5d2a82	0.86392987
8	0x3f640a58	0.89078283
9	0x3f543ddc	0.8290689
10	0x3f52555d	0.82161504
11	0x3f4c7c0a	0.7987677
12	0x3f48dccd	0.78461915
13	0x3f52d171	0.8235083
14	0x3f2dc351	0.67876154
15	0x3f77aabc	0.96744895
16	0x3f80d08b	1.0063642
17	0x3f47ca33	0.78042907
18	0x3f64054f	0.890706
19	0x3f2c682e	0.67346466
20	0x3f2e25a7	0.680262
21	0x3f471e2f	0.7778043
22	0x3f60c8df	0.87806505
23	0x3f477c6a	0.77924216
24	0x3f3fcd20	0.7492237
25	0x3f3d992d	0.7406185
26	0x3f1fed50	0.62471485
27	0x3f37010e	0.71485984
28	0x3f581559	0.84407574
29	0x3f109ece	0.56492317
30	0x3f3f9fa0	0.74852943
31	0x3f7931b1	0.9734145

network.9.bias f4 [32]
0	0xbeb26407	-0.3484194
1	0xbe45bb8b	-0.19309823
2	0xbdf9c664	-0.12196043
3	0xbe617913	-0.22018842
4	0xbe311c0a	-0.17295852
5	0xbe4c906a	-0.19976965
6	0xbe137b50	-0.14402509
7	0xbd4ad346	-0.049517892
8	0xbe506bf9	-0.20353688
9	0xbe6356ea	-0.22201124
10	0xbe310d74	-0.17290288
11	0xbe0b63a5	-0.1361223
12	0xbe00f297	-0.1259254
13	0xbe5aaaf2	-0.21354273
14	0xbe74e918	-0.23917043
15	0xbd58e313	-0.05295093
16	0xbe6c37c6	-0.23068151
17	0xbe110326	-0.14161357
18	0xbe17ea5b	-0.14835493
19	0xbe79bb16	-0.24387774
20	0xbec31035	-0.38098302
21	0xbe61ad7c	-0.22038835
22	0xbe486004	-0.19567877
23	0xbe11ef4f	-0.14251445
24	0xbe66fa50	-0.22556424
25	0xbe81a66d	-0.25322285
26	0xbe5058be	-0.20346352
27	0xbe769c98	-0.24083173
28	0xbe6e72a6	-0.23285922
29	0xbe87393b	-0.2641085
30	0xbe1f75aa	-0.15572229
31	0xbea7b9cc	-0.3275894

network.9.running_mean f4 [32]
0	0xbf48b09a	-0.7839447
1	0xbed5c21c	-0.41749656
2	0x3e0146e0	0.12624693
3	0xbe068d0f	-0.13139747
4	0xbda14162	-0.07873799
5	0xbf37186a	-0.7152163
6	0xbe92797d	-0.28608313
7	0x3cbaf2dd	0.022820884
8	0xbf238e18	-0.6388869
9	0xbeffb0a1	-0.49939445
10	0xbdb0b3ea	-0.08628066
11	0x3e73acab	0.23796336
12	0xbc7020de	-0.014656274
13	0xbf11f1f7	-0.57009834
14	0x3ce8a7e8	0.028400376
15	0x3c8ef3ac	0.017450176
16	0xbc9b951b	-0.018991997
17	0xbe9564dd	-0.29178515
18	0xbeda21c8	-0.42603898
19	0x3dd6236d	0.10455976
20	0x3f51c72e	0.8194455
21	0x3eefe7b5	0.46856466
22	0xbed62b1c	-0.41829765
23	0xbed60e5f	-0.4180784
24	0x3ddbdd4b	0.10735568
25	0xbe82b95d	-0.25532046
26	0x3eac6c5a	0.33676416
27	0x3f27ceda	0.65550005
28	0xbe956b73	-0.2918354
29	0x3f1dcb1b	0.6163804
30	0xbe252e16	-0.16130862
31	0xbe46b425	-0.19404657

network.9.running_var f4 [32]
0	0x3ebc69b4	0.36799395
1	0x3e879509	0.26480892
2	0x3e1e8ddf	0.15483807
3	0x3e21b49c	0.15791553
4	0x3e5c36f4	0.21505338
5	0x3e465cc1	0.1937132
6	0x3e298fcc	0.1655876
7	0x3e48fe98	0.1962837
8	0x3e35a16e	0.17737362
9	0x3e9c09e1	0.30476287
10	0x3e3b2279	0.18274869
11	0x3e4c1c1c	0.19932598
12	0x3e55b27a	0.20868865
13	0x3e9064a7	0.28201792
14	0x3dfe0969	0.124041386
15	0x3e2c2e9e	0.16814658
16	0x3e4ae289	0.19812979
17	0x3e6bfbd0	0.23045278
18	0x3e37ee5b	0.17962019
19	0x3e24c674	0.16091329
20	0x3e27038d	0.16309948
21	0x3e1afbba	0.15135089
22	0x3e9a05e6	0.30082625
23	0x3e34b269	0.17646183
24	0x3e0a34e8	0.13496745
25	0x3e106057	0.1409925
26	0x3e440850	0.19143796
27	0x3e02425c	0.12720627
28	0x3e369dad	0.17833586
29	0x3e1d6af3	0.15372829
30	0x3e514039	0.20434655
31	0x3e9272cf	0.28603217

network.14.weight f4 [2, 640]
0	0x3c065a5c	0.008200254
1	0x3ae68ce3	0.0017589595
2	0xbd12fe66	-0.035887145
3	0x3de33d24	0.11095646
4	0xbc533ab7	-0.012892417
5	0x3d3da1ca	0.046296872
6	0xbccab8b8	-0.024746284
7	0x3d3ba89e	0.045815103
8	0xbd02de0e	-0.03195005
9	0x3d355f56	0.044280373
10	0xbdacc805	-0.08436588
11	0x3db6cd87	0.0892592
12	0xbba3fa43	-0.0050041988
13	0x3d40022e	0.04687708
14	0xbd21534d	-0.039386082
15	0x3dc9fbb9	0.098624654
16	0xbd608322	-0.054812558
17	0x3d5323b8	0.051547736
18	0xbd4b485d	-0.049629558
19	0x3de6c968	0.11268884
20	0x3d8ed50a	0.06974228
21	0x3c39a619	0.011331105
22	0x3de1d984	0.11027816
23	0x3d26658f	0.040624198
24	0xbb544195	-0.0032387723
25	0x3cb2867e	0.021792646
26	0x3d9f1818	0.077682674
27	0x3cf98e99	0.030463504
28	0x3c91c762	0.017795268
29	0x3d924a66	0.071430966
30	0x3c024a2a	0.007952252
31	0x3d6fe971	0.058572236
32	0xbbccec81	-0.0062537794
33	0x3bcc851f	0.006241455
34	0x3d4481b9	0.047975276
35	0x3c043982	0.008070352
36	0x3d32b089	0.04362539
37	0x3cbea764	0.023273177
38	0x3d81befd	0.06335256
39	0x3caeda90	0.021344453
40	0xbdcd8d1c	-0.1003668
41	0x3d292b4f	0.041301068
42	0xbd8fa047	-0.07012992
43	0xbc93f53c	-0.018061273
44	0xbcd6586d	-0.026165212
45	0xbcdcf58c	-0.026972555
46	0xbd01f150	-0.031724274
47	0x3c851d44	0.016249306
48	0xbd84abb8	-0.06478065
49	0xbcbf5f76	-0.023360949
50	0xbd6066ff	-0.054785725
51	0xbcb163c7	-0.021654023
52	0xbcfb853c	-0.03070318
53	0xbc66fe6d	-0.014098746
54	0xbcc94a04	-0.024571426
55	0x3bd0b1e1	0.006368861
56	0xbd8ae1b9	-0.067813344
57	0xbc315f50	-0.010825947
58	0xbd619405	-0.055072803
59	0x3ccbfe00	0.02490139
60	0x3df1fc85	0.118157424
61	0x3cb83c33	0.022489643
62	0xbd74251b	-0.0596057
63	0xbd291821	-0.041282777
64	0x3e0b3316	0.13593706
65	0xbd156510	-0.036473334
66	0xbc91398d	-0.017727638
67	0xbb57ff67	-0.0032958628
68	0x3cfa4d2e	0.03055438
69	0xbc83e916	-0.016102355
70	0x3c3a6940	0.011377633
71	0x3d06a929	0.032876167
72	0x3e0fcb70	0.14042449
73	0x3c95cac7	0.018285168
74	0xbc8733af	-0.016504137
75	0x3c0bc614	0.008531112
76	0x3d4ec729	0.050482903
77	0xbd15c747	-0.036567
78	0xbcb2fdc8	-0.021849528
79	0x3d2de045	0.04245021
80	0xbaafb216	-0.0013404514
81	0x3dbdf21d	0.09274695
82	0xbc2e720b	-0.010647307
83	0x3d0a8d76	0.033826314
84	0x3c5aa8f2	0.013345944
85	0x3d59666e	0.0530762
86	0x3cac37df	0.021022735
87	0x3c2f94e7	0.010716653
88	0xbc35ab82	-0.011088254
89	0x3d966668	0.07343751
90	0x3c06d6cf	0.008229925
91	0x3d1e6272	0.038668104
92	0x3d27102c	0.040786907
93	0x3d15f551	0.036610905
94	0xbbe759fe	-0.0070602885
95	0x3c164d9d	0.009173778
96	0x3d3b2bae	0.045695953
97	0x3d62f9fe	0.055414192
98	0x3c648303	0.013947251
99	0x3cccfdf1	0.025023432
100	0xbd8b1517	-0.06791132
101	0xbd3e9f05	-0.04653837
102	0x3cf74cfe	0.03018808
103	0x3d92960f	0.07157528
104	0xbc75e506	-0.015008217
105	0x3b2bf4d2	0.0026238454
106	0x3d7b6fa5	0.06138577
107	0x3c734d22	0.014849933
108	0xbc56ee95	-0.013118406
109	0xbd5a6138	-0.05331537
110	0x3d738f55	0.059462864
111	0x3da041a3	0.07825019
112	0xbd480cb7	-0.04884025
113	0xbc86e458	-0.016466305
114	0x3d29d110	0.041459143
115	0x3d1c6ef8	0.038191766
116	0xbd7348b2	-0.0593955
117	0xbc9e5a82	-0.019330267
118	0x3d855f58	0.06512326
119	0x3d8f57eb	0.06999191
120	0xbcc20acc	-0.023686789
121	0x3ca3b6ab	0.019984564
122	0xbd5b10f5	-0.05348297
123	0xbd2c365a	-0.04204402
124	0x3d91e86f	0.07124411
125	0x3bb56995	0.005536268
126	0x3c6385b6	0.01388686
127	0xbcfbb17f	-0.030724285
128	0xbc1856d1	-0.009298042
129	0xbc304895	-0.010759492
130	0xbd284ebe	-0.04109072
131	0xbc8f011f	-0.01745659
132	0x3cb0fa9c	0.021603875
133	0x3a8333fc	0.0010009999
134	0xbc57b72c	-0.01316623
135	0xbce85e97	-0.028365416
136	0x3af4b41c	0.00186694
137	0x3996e75a	0.000287826
138	0xbdcfdb34	-0.101492316
139	0xbd5890f9	-0.05287263
140	0xbd0955d3	-0.033529114
141	0xbd2ba4f9	-0.041905377
142	0xbd4015eb	-0.046895903
143	0xbcce28f3	-0.02516601
144	0xbd869da3	-0.065730356
145	0xbd81f82a	-0.06346162
146	0xbd128250	-0.035768807
147	0x3cee7cb6	0.029112201
148	0xbd40fd6b	-0.04711668
149	0xbd3163d2	-0.043308087
150	0xbcf0d036	-0.029396158
151	0x3d4e7079	0.05040023
152	0xbcca76e2	-0.02471489
153	0x3d078e1c	0.03309451
154	0x3a085ea1	0.0005202089
155	0xbc806c0a	-0.015676517
156	0xbd2a601c	-0.041595563
157	0x3ae38198	0.0017357348
158	0xbd925475	-0.07145015
159	0xbd03e87d	-0.03220414
160	0x3d819b4b	0.06328448
161	0x3d1ccbf6	0.03828045
162	0x3d6955fe	0.056966774
163	0x3d9c9c60	0.07647014
164	0x3da7b993	0.08189692
165	0x3bc55fe7	0.0060233953
166	0x3c68c45f	0.014206975
167	0x3c1609cd	0.00915761
168	0x3d0de10e	0.034638457
169	0x3c665226	0.014057672
170	0x3d8d591a	0.069017604
171	0x3d417c1c	0.0472375
172	0x3d33a1db	0.04385553
173	0xbd18ffee	-0.03735345
174	0x3c8858f6	0.016643982
175	0x3d039818	0.03212747
176	0x3d4a01c3	0.049318086
177	0x3d41f706	0.04735472
178	0x3cd11eee	0.025527444
179	0x3d30893c	0.043099627
180	0xbc82075a	-0.015872646
181	0x3d00df70	0.031463087
182	0xbd06b98c	-0.032891795
183	0x3dc267bf	0.09492444
184	0xbd09c8a8	-0.033638626
185	0xbca6082d	-0.02026757
186	0xbdbaf698	-0.09129065
187	0x3d8b187e	0.06791781
188	0xbcf5ee85	-0.030020962
189	0xbcaa6535	-0.020800212
190	0xbd4ed9d5	-0.05050071
191	0x3e29440e	0.16529867
192	0xbd045417	-0.032306757
193	0x3d90b325	0.07065419
194	0xbd3a6b31	-0.045512382
195	0x3dac5183	0.084139846
196	0xbdb1d296	-0.08682744
197	0xbcf51ae9	-0.029920058
198	0xbd43ccb5	-0.047802646
199	0x3db56981	0.08858014
200	0x3d90ab6c	0.07063946
201	0xbcade51e	-0.021227416
202	0x3dfa09f0	0.12208927
203	0xbc9b73a9	-0.01897605
204	0x3c82a724	0.01594884
205	0xbd3b98fb	-0.04580019
206	0x3df9f4c5	0.12204889
207	0xba4a5607	-0.00077185075
208	0x3cfbdc2b	0.030744633
209	0xbceb9495	-0.028757373
210	0x3d499596	0.049214922
211	0x3bd73299	0.006567311
212	0xbca4a7c8	-0.020099536
213	0x3bf48e0b	0.007463222
214	0x3d3371fc	0.043809876
215	0xb91032fc	-0.00013751903
216	0x3d6321e7	0.055452254
217	0x3c60b181	0.013714195
218	0x3d35c362	0.044375785
219	0xbca44c1f	-0.020055829
220	0xbbe8618e	-0.0070917075
221	0x3d3f89ef	0.046762403
222	0x3d8cae29	0.06869156
223	0xbc146567	-0.009057379
224	0x3ce63abe	0.028104182
225	0x3d7b3a24	0.061334744
226	0xbcc2c6b2	-0.023776386
227	0xbc568685	-0.013093595
228	0x3c959453	0.018259203
229	0x3dd321fd	0.10309217
230	0x3d3d1c8c	0.046169803
231	0x3c605efc	0.013694521
232	0x3d2e3e8f	0.04254013
233	0x3db7d8ff	0.089769356
234	0x3d3932fb	0.045214634
235	0xbd593aea	-0.0530347
236	0xbd04aacb	-0.032389443
237	0x3d9bbda1	0.07604528
238	0xbcb95f53	-0.022628462
239	0x3c71b0a6	0.014751589
240	0x3c8fbf9c	0.017547421
241	0x3cf4aa84	0.029866464
242	0x3d010efc	0.03150843
243	0xbd8ae9f8	-0.06782907
244	0x3c43c378	0.011948459
245	0x3d17c463	0.037052523
246	0x3c902a1e	0.017598208
247	0xbd3b93f4	-0.045795396
248	0xbc815049	-0.015785353
249	0x3c97cd9c	0.01853066
250	0x3c8cb18a	0.017174501
251	0xbc498518	-0.012299798
252	0x3d2c76a2	0.042105325
253	0x3d2af30e	0.0417357
254	0x3cdd6078	0.027023539
255	0xbcfcfb2e	-0.03088149

network.14.bias f4 [2]
0	0xbda269bc	-0.079303235
1	0x3d8e4edf	0.06948637
