Models/Model3_convolution_SNN.pt (torch, 56823 bytes, 22 tensors)

conv_block.0.weight f4 [8, 1, 5, 5]
0.020137649 -0.070479944 0.05481463 0.046694875 0.15624413 0.1801331 -0.008521097 -0.0031677464
-0.18408965 -0.07581388 -0.08747279 -0.094522536 0.007986835 -0.11149436 -0.115135126 0.16328602
-0.049819447 0.07441033 -0.12939662 -0.09958494 0.07431876 0.08871507 0.08389909 0.27093333
0.2214838 -0.074786775 0.14845744 0.07764179 -0.15634355 -0.084427685 -0.19961579 0.026957905
0.16003345 -0.09386762 -0.17303158 -0.115511276 0.030159973 0.0766385 -0.028249303 0.054773655
0.16086541 0.0667986 0.04730787 -0.011750727 0.089130074 0.14414372 -0.20722666 -0.19909307
0.17053592 -0.18434821 0.17752793 -0.15257944 0.09575876 0.13289881 -0.21262288 -0.17682533
0.12945166 -0.042892855 -0.18313494 0.19177935 0.050837923 0.11754437 0.10470695 -0.14785135
-0.046057954 -0.13367094 -0.004791633 -0.017977212 0.14270377 0.15831123 0.12526023 -0.13627195
-0.16268925 0.11994059 -0.104738854 -0.07784618 -0.1072261 -0.023474377 0.04940174 0.027519759
-0.1499814 0.050263207 -0.19191535 0.14828862 0.110826455 -0.21381709 0.06816405 -0.046665777
-0.013443373 0.09259476 0.111618064 0.16432993 0.019590722 -0.1439685 -0.14597341 0.18469886
0.1452115 0.09953872 0.17390539 -0.20166077 0.06975655 -0.18798704 -0.040063523 0.05866925
-0.14191328 -0.215449 0.0657175 -0.15820049 -0.12971167 -0.111537434 0.10685965 -0.022116903
-0.15490206 -0.14408755 0.1163217 0.05036816 -0.08749618 0.15071833 0.13978389 -0.04987921
-0.032902926 0.062351737 0.10741677 -0.0342529 -0.021560017 0.123583816 -0.20662123 0.040487807
0.05996143 -0.1494949 -0.09518465 -0.22289915 0.026575485 -0.046642635 -0.11972451 0.14904524
0.0025684529 -0.12399819 -0.0025440287 0.14184754 0.17185432 0.18565293 -0.19349328 0.09095702
-0.12222788 -0.022445288 0.032206997 0.16943993 0.10212177 -0.08509693 -0.1358504 -0.008765
0.21055412 0.19744942 -0.08379374 -0.014758433 -0.16660012 -0.16449945 -0.12687701 -0.16064055
0.18272881 0.08183142 -0.1670939 0.07322703 0.14577973 -0.06369226 0.04359419 -0.10629621
-0.015388008 0.08197731 0.04496763 0.14824179 0.11306981 -0.12820692 -0.018175459 -0.033124868
0.14515203 -0.005283718 0.15857135 0.2109026 -0.13823007 -0.17490898 -0.039062146 0.03122726
-0.035708174 0.12902279 0.21006978 -0.098789394 -0.14202163 -0.24522443 -0.100856155 -0.18712519
0.12656362 0.09135494 -0.21224338 0.04055116 0.15673523 -0.1722832 0.09528457 0.12058111
00000000: b6f7 a43c ca57 90bd 4e85 603d 2043 3f3d
00000010: 76fe 1f3e d074 383e 129c 0bbc f799 4fbb
00000020: ff81 3cbe 4f44 9bbd ef24 b3bd 0895 c1bd
00000030: 37db 023c 2857 e4bd f7cb ebbd 7334 273e
00000040: 7a0f 4cbd 7164 983d 8c80 04be 30f3 cbbd
00000050: 6f34 983d 3fb0 b53d 49d3 ab3d c6b7 8a3e
00000060: a6cc 623e cf29 99bd 3a05 183e a902 9f3d
00000070: 8618 20be 6ce8 acbd 1568 4cbe d3d6 dc3c
00000080: cfdf 233e ab3d c0bd 312f 31be 2d91 ecbd
00000090: 0c12 f73c a5f4 9c3d 156b e7bc 575a 603d
000000a0: e7b9 243e b4cd 883d e6c5 413d 1f86 40bc
000000b0: d489 b63d 699a 133e 3a33 54be 0edf 4bbe
000000c0: f8a0 2e3e c7c5 3cbe e2c9 353e c93d 1cbe
000000d0: 2b1d c43d a016 083e d0b9 59be b311 35be
000000e0: fa8e 043e 6bb0 2fbd ba87 3bbe ce61 443e
000000f0: 6d3b 503d 1abb f03d 9970 d63d 5866 17be
00000100: 44a7 3cbd 09e1 08be 2203 9dbb f244 93bc
00000110: f020 123e 571c 223e 3844 003e e08a 0bbe
00000120: 0398 26be 69a3 f53d 5381 d6bd d16d 9fbd
00000130: 5c99 dbbd 564d c0bc 7b59 4a3d 1e71 e13c
00000140: b994 19be cbe0 4d3d 7585 44be f9d8 173e
00000150: fbf8 e23d def2 5abe 9899 8b3d 9d24 3fbd
00000160: 9841 5cbc 52a2 bd3d 0398 e43d 1b46 283e
00000170: b97c a03c 7a6c 13be 0e7a 15be b321 3d3e
00000180: 53b2 143e f5da cb3d 4114 323e 2980 4ebe
00000190: 86dc 8e3d ad7f 40be a619 24bd 2b4f 703d
000001a0: b751 11be aa9e 5cbe e696 863d 4fff 21be
000001b0: 23d3 04be bd6d e4bd 3bd9 da3d 822e b5bc
000001c0: a59e 1ebe b08b 13be 123a ee3d d84e 4e3d
000001d0: 3231 b3bd e855 1a3e 8223 0f3e 244e 4cbd
000001e0: 38c5 06bd 8964 7f3d 53fd db3d c54c 0cbd
000001f0: a29e b0bc 8319 fd3d 8494 53be 8bd6 253d
00000200: 1e9a 753d 3115 19be 2bf0 c2bd ad3f 64be
00000210: d5b4 d93c 590c 3fbd 2032 f5bd 519f 183e
00000220: 7d53 283b c3f2 fdbd b8b9 26bb 7b40 113e
00000230: 94fa 2f3e cd1b 3e3e 1a23 46be ad47 ba3d
00000240: 9c52 fabd 2edf b7bc 7ceb 033d a981 2d3e
00000250: 3825 d13d 4d47 aebd 5e1c 0bbe 139b 0fbc
00000260: 809b 573e 2e30 4a3e 0d9c abbd 5bcd 71bc
00000270: 3999 2abe 8b72 28be 0cec 01be f57e 24be
00000280: 431d 3b3e 3b97 a73d aa1a 2bbe 0ef8 953d
00000290: 4847 153e 1671 82bd d28f 323d d4b1 d9bd
000002a0: fc1d 7cbc b8e3 a73d fa2f 383d b2cc 173e
000002b0: 2591 e73d ad48 03be b3e4 94bc f1ad 07bd
000002c0: bca2 143e 0a23 adbb 8760 223e daf6 573e
000002d0: 2f8c 0dbe 571b 33be a1ff 1fbd 50d0 ff3c
000002e0: bc42 12bd 8d1e 043e 881c 573e 1852 cabd
000002f0: 1e6e 11be 1d1c 7bbe ac8d cebd bf9d 3fbe
00000300: e599 013e 4c18 bb3d 5456 59be f918 263d
00000310: 337f 203e 026b 30be 8e24 c33d 3bf3 f63d

conv_block.0.bias f4 [8]
0.05036064 0.08386142 0.13747732 -0.062808394 0.111648045 -0.007489842 -0.06010518 -0.16967784
00000000: f546 4e3d 89bf ab3d dbc6 0c3e b0a1 80bd
00000010: bba7 e43d 596d f5bb d930 76bd 07c0 2dbe

conv_block.1.weight f4 [8]
0.9373106 0.96672446 1.1540678 0.9581737 0.93079597 0.98293924 1.0779628 0.97770816
00000000: 96f3 6f3f 417b 773f 7eb8 933f df4a 753f
00000010: a548 6e3f e8a1 7b3f affa 893f 154b 7a3f

conv_block.1.bias f4 [8]
0.029030783 0.0015957673 -0.0464573 0.002545623 -0.0453467 0.02855507 -0.0029973623 -0.0030281083
00000000: f7d1 ed3c 1129 d13a 034a 3ebd 78d4 263b
00000010: 76bd 39bd 52ec e93c 656f 44bb 3a73 46bb

conv_block.1.running_mean f4 [8]
0.045219783 0.08187749 0.13462926 -0.060816724 0.11938583 -0.0060842196 -0.061088018 -0.17264178
00000000: 6138 393d 63af a73d 41dc 093e f51a 79bd
00000010: 8f80 f43d 225e c7bb 6e37 7abd 02c9 30be

conv_block.1.running_var f4 [8]
9.295799 12.6856785 2.9055254 8.510618 9.687433 11.19038 5.0340724 4.960833
00000000: 98bb 1441 8af8 4a41 21f4 3940 7e2b 0841
00000010: baff 1a41 cc0b 3341 1f17 a140 25bf 9e40

conv_block.2.weight f4 [16, 8, 5, 5]
0.031535607 0.011502512 -0.053125817 0.11039702 -0.005222847 -0.053839006 0.1175067 0.055292334
0.023975978 -0.120180495 -0.060098432 0.0026958194 -0.06435238 0.000989559 -0.14345445 -0.035859652
0.00046195055 -0.056224037 0.0007131787 -0.008916287 -0.058064986 -0.0029582346 0.0058740834 0.014341271
-0.012069723 -0.013499079 -0.076468274 0.041011337 -0.055908326 -0.19805938 -0.0005096351 0.048272442
0.039350383 0.085142754 -0.082288235 0.07281136 0.034379866 0.05635213 0.06582395 0.049891725
0.059361123 0.030303992 -0.04584992 -0.034261517 -0.01918682 0.028334672 -0.09527806 -0.003159565
-0.013755576 0.0015654151 -0.084073365 -0.010851783 -0.0017270998 -0.08138522 0.01757814 -0.12335414
-0.06222716 -0.03641909 -0.06659284 -0.11054971 -0.027379878 0.023283478 0.09622212 -0.040602453
-0.06189538 0.08045095 -0.03150449 -0.061234776 0.0043425797 0.0057993177 -0.061483577 -0.08448023
0.12486626 -0.04307311 0.035169892 -0.0064032865 0.051390465 -0.008277983 -0.09085619 0.024487024
0.022748845 0.056598075 0.043058373 0.013709536 0.0061517465 0.032103322 -0.036259647 -0.030833272
-0.01889495 0.087996095 -0.010978623 0.06413401 0.004930309 -0.0066178204 0.007932129 0.059739716
-0.022512162 0.028749695 -0.15121321 -0.016531726 0.028000748 0.03862689 0.0055013574 -0.12151955
-0.111379385 -0.032599695 0.04546195 0.07966332 -0.058048103 -0.0866392 0.08405064 0.019644227
0.055627845 0.055423517 0.019016951 -0.022999782 0.08263057 -0.0130315265 0.032340743 -0.02713495
0.04575513 0.011577845 -0.046135657 -0.06330714 -0.038660847 0.02773002 -0.07365958 0.014211374
-0.05169878 -0.07868591 -0.034054734 0.0115412865 -0.0056717754 -0.0097015435 -0.11611242 0.03495874
0.03934505 -0.012624684 0.05773869 0.0061195865 0.00013747385 -0.056556158 0.006441377 -0.09710836
-0.05679611 -0.073367715 -0.054365203 0.06851219 0.0076821977 -0.090741605 -0.0006180133 0.06821132
0.037945963 -0.11843294 0.040059917 -0.08350358 0.0009825209 0.14069441 0.12435789 -0.046103995
0.03189869 0.08149586 0.072663285 -0.06226663 -0.025455236 -0.009792294 0.09564522 0.023891127
-0.15756144 -0.06944854 -0.090631045 0.048469152 0.01566292 -0.02465694 -0.027991716 0.100012705
0.08480347 0.036359172 0.11867905 0.070104584 -0.05859434 0.04737102 0.00414102 -0.049824648
0.06907432 0.0077662123 0.04807816 0.046467718 -0.020470873 0.07177074 -0.13507925 -0.045804136
0.012254947 -0.06861435 0.12275603 0.010121838 0.025617957 -0.0032410754 0.04665984 0.122941695
0.030139342 -0.0037671835 -0.049325485 -0.046167713 0.062965035 -0.025709443 0.02049658 0.08079638
-0.06417775 0.074186616 0.043836173 -0.013171583 0.08132524 -0.08618982 0.029466137 -0.02842138
0.011476509 0.0056867353 -0.030303812 0.09826428 -0.041109294 -0.059612945 -0.009409926 0.017173784
0.023979561 0.011305345 -0.024171764 -0.05182633 0.034523614 0.07304574 -0.11370191 0.009172084
-0.033160876 0.015581326 0.07692237 -0.064635135 0.041632988 0.023118591 0.0067391074 0.07139161
0.054770276 -0.09037219 -0.002140934 -0.071855016 -0.045451462 0.04407837 -0.025041923 0.003010511
0.055195052 0.04808853 -0.030199958 0.107098125 0.061939314 -0.0011892334 0.10414119 -0.001864352
00000000: 7b2b 013d 0875 3c3c 759a 59bd d517 e23d
00000010: 6b24 abbb 4a86 5cbd 5aa7 f03d 377a 623d
00000020: 4569 c43c 3121 f6bd c629 76bd 58ac 303b
00000030: 2ecb 83bd 17b4 813a b9e5 12be 92e1 12bd
00000040: f431 f239 2d4b 66bd 9df4 3a3a 9e15 12bc
00000050: 8dd5 6dbd f1de 41bb 627b c03b a6f7 6a3c
00000060: 16c0 45bc 3e2b 5dbc 669b 9cbd 81fb 273d
00000070: 2100 65bd 14d0 4abe 0899 05ba 53b9 453d
00000080: de2d 213d 535f ae3d bc86 a8bd 1f1e 953d
00000090: e7d1 0c3d 7ed1 663d b5ce 863d 445b 4c3d
000000a0: a624 733d 1440 f83c 20cd 3bbd ce55 0cbd
000000b0: ae2d 9dbc 1d1e e83c 2521 c3bd b410 4fbb
000000c0: 115f 61bc 9d2e cd3a a82e acbd adcb 31bc
000000d0: da5f e2ba 4bad a6bd 0800 903c 18a1 fcbd
000000e0: e8e1 7ebd 2f2c 15bd d461 88bd e367 e2bd
000000f0: c44b e0bc febc be3c 1a10 c53d c24e 26bd
00000100: 0386 7dbd 78c3 a43d da0a 01bd 51d1 7abd
00000110: 334c 8e3b 3408 be3b 34d6 7bbd f903 adbd
00000120: e2b9 ff3d 6e6d 30bd 4e0e 103d a9d2 d1bb
00000130: cf7e 523d 61a0 07bc cf12 babd 0399 c83c
00000140: c95b ba3c 62d3 673d fa5d 303d f69d 603c
00000150: 9794 c93b c67e 033d ff84 14bd 0f96 fcbc
00000160: 95c9 9abc 4c37 b43d afdf 33bc b158 833d
00000170: 6e8e a13b 4dda d8bb c3f5 013c a2b1 743d
00000180: 6d6b b8bc 7b84 eb3c a3d7 1abe 8b6d 87bc
00000190: d361 e53c 3b37 1e3d bb44 b43b 3edf f8bd
000001a0: e01a e4bd 4287 05bd 4f36 3a3d 8626 a33d
000001b0: d9c3 6dbd e56f b1bd be22 ac3d eeec a03c
000001c0: 06da 633d c503 633d 70c9 9b3c 0a6a bcbc
000001d0: 373a a93d 2f82 55bc ba77 043d 1d4a debc
000001e0: bb69 3b3d 00b1 3d3c bef8 3cbd 2ca7 81bd
000001f0: d65a 1ebd 112a e33c d5da 96bd d3d6 683c
00000200: 1ac2 53bd 1426 a1bd fa7c 0bbd aa17 3d3c
00000210: 4dda b9bb 39f3 1ebc 59cc edbd e530 0f3d
00000220: 4628 213d c3d7 4ebc 687f 6c3d d086 c83b
00000230: db26 1039 6ea7 67bd 3012 d33b bfe0 c6bd
00000240: 0aa3 68bd d041 96bd 0cae 5ebd 1e50 8c3d
00000250: f2ba fb3b bcd6 b9bd 2c02 22ba 60b2 8b3d
00000260: 3a6d 1b3d f88c f2bd de15 243d ed03 abbd
00000270: eec7 803a 3212 103e 59af fe3d 8bd7 3cbd
00000280: 33a8 023d 4de7 a63d 7dd0 943d 4b0b 7fbd
00000290: 8087 d0bc dc6f 20bc a4e1 c33d 53b7 c33c
000002a0: c957 21be 093b 8ebd c59c b9bd 9787 463d
000002b0: 864f 803c 5afd c9bc e24e e5bc 76d3 cc3d
000002c0: 71ad ad3d 5bed 143d 000e f33d fe92 8f3d
000002d0: 9e00 70bd 1d08 423d 65b1 873b ee14 4cbd
000002e0: d676 8d3d b67b fe3b 9bed 443d ef54 3e3d
000002f0: 88b2 a7bc 8afc 923d 3752 0abe 1e9d 3bbd
00000300: f9c8 483c ae85 8cbd 8367 fb3d 11d6 253c
00000310: c0dc d13c 3968 54bb 631e 3f3d dbc8 fb3d
00000320: c8e6 f63c dae2 76bb 8509 4abd 5b1a 3dbd
00000330: d0f3 803d 9c9c d2bc 72e8 a73c 9378 a53d
00000340: a06f 83bd 27ef 973d 8f8d 333d a0cd 57bc
00000350: d98d a63d 4a84 b0bd f862 f13c f4d3 e8bc
00000360: f807 3c3c cb57 ba3b b33f f8bc c83e c93d
00000370: 3862 28bd b42c 74bd 172c 1abc 09b0 8c3c
00000380: c970 c43c 0e3a 393c dd03 c6bc d947 54bd
00000390: a268 0d3d 0199 953d 8cdc e8bd 8246 163c
000003a0: b3d3 07bd d148 7f3c 7a89 9d3d 6d5f 84bd
000003b0: 5a87 2a3d 3363 bd3c bbd3 dc3b c435 923d
000003c0: cc56 603d 0e15 b9bd ea4e 0cbb b928 93bd
000003d0: 502b 3abd 858b 343d b824 cdbc fe4b 453b
000003e0: 3514 623d 7af8 443d e765 f7bc 4356 db3d
000003f0: 14b4 7d3d 0de0 9bba fa47 d53d 465d f4ba

conv_block.2.bias f4 [16]
-0.04273373 0.016781183 0.029069148 -0.109772295 0.036800433 0.050750703 -0.057957113 -0.084434636
-0.03819906 -0.03599282 0.03179217 -0.08088224 0.05726899 -0.026869377 0.0018835108 -0.026756389
00000000: 9009 2fbd b178 893c 6c22 ee3c 4cd0 e0bd
00000010: 0dbc 163d f8df 4f3d 7064 6dbd 11ec acbd
00000020: 9e76 1cbd 356d 13bd 8238 023d 96a5 a5bd
00000030: e392 6a3d 2b1d dcbc 23e0 f63a 3730 dbbc

conv_block.3.weight f4 [16]
1.0109712 0.9763901 1.0430318 0.99480057 1.0199404 0.9617544 0.96813035 0.9763441
0.9403942 0.9884171 1.0090272 0.9594432 0.9331966 0.9344702 0.97686934 0.9910343
00000000: 8167 813f b4f4 793f 1182 853f 40ab 7e3f
00000010: 688d 823f 8935 763f 64d7 773f b0f1 793f
00000020: adbd 703f e708 7d3f ce27 813f 129e 753f
00000030: f9e5 6e3f 7039 6f3f 1c14 7a3f 6db4 7d3f

conv_block.3.bias f4 [16]
-0.04638726 -0.17097478 -0.115298264 -0.037206396 -0.06819427 -0.05463204 -0.12149669 -0.12483514
-0.10147006 -0.12264524 -0.09122354 -0.13435534 -0.20750836 -0.14250219 -0.11313784 -0.15611786
00000000: 9100 3ebd 0314 2fbe 7f21 ecbd bc65 18bd
00000010: 70a9 8bbd d9c5 5fbd 42d3 f8bd 91a9 ffbd
00000020: 89cf cfbd 6d2d fbbd 68d3 babd 7294 09be
00000030: 127d 54be 18ec 11be d0b4 e7bd 5cdd 1fbe

conv_block.3.running_mean f4 [16]
-0.036564976 0.035881344 -0.016992753 -0.13128415 0.036358256 0.054973304 -0.029703856 -0.032109845
-0.01528629 -0.10722722 0.028589442 -0.11584509 0.08537329 -0.020727465 0.0040445323 -0.032710496
00000000: 28c5 15bd 51f8 123d 6334 8bbc 5a6f 06be
00000010: 65ec 143d b02b 613d 8055 f3bc 9d85 03bd
00000020: 5973 7abc f299 dbbd 6834 ea3c 3140 edbd
00000030: 31d8 ae3d a5cc a9bc ff87 843b 71fb 05bd

conv_block.3.running_var f4 [16]
2.1194503 2.9215457 2.6337335 2.3291457 2.6196272 1.9849703 2.9433398 2.5010495
2.6719334 3.2224967 2.194331 2.7023895 2.4215977 2.5538592 2.8019023 2.574143
00000000: 13a5 0740 9bfa 3a40 178f 2840 b910 1540
00000010: f9a7 2740 8213 fe3f ae5f 3c40 3211 2040
00000020: f500 2b40 633d 4e40 eb6f 0c40 f3f3 2c40
00000030: 75fb 1a40 6e72 2340 5e52 3340 c2be 2440

conv_block.7.weight f4 [16, 16, 3, 3]
-0.035452403 0.035990316 -0.090421 -0.04158168 0.045975816 0.11580309 -0.04735009 0.00033425674
0.07920681 -0.09277064 -0.04166334 -0.104018435 -0.08101182 0.040946677 -0.05044923 0.14327757
0.044015605 0.067971006 -0.08049446 -0.06841889 0.09579845 0.13522698 0.0025887515 0.09036583
-0.035568528 0.025971303 -0.01888316 0.033996522 0.10650289 0.017168546 -0.03386925 -0.013101461
0.08171084 0.1051401 -0.014078791 -0.026042901 0.035700932 0.05346685 -0.084035434 -0.068431824
-0.01793874 -0.14228739 0.08853209 0.11590496 -0.12752646 -0.008688856 -0.017422237 -0.05417414
0.10045384 -0.069473706 0.021525977 -0.001046543 0.047264095 0.039700847 0.019062413 -0.010324174
-0.07224761 -0.04181646 0.054869622 0.051118486 0.026147429 0.044527985 0.10981627 0.041214526
-0.061578147 0.024302702 -0.006025508 -0.06258745 0.0877012 0.005461734 -0.0012861285 -0.01762624
0.0483529 0.049541198 0.0019471437 -0.02187447 0.04646496 0.036033183 -0.028403273 0.0002746068
0.007855694 -0.050495453 0.123794876 -0.015725091 -0.117089905 -0.02114921 0.029798074 -0.11058489
0.000584312 0.19171318 -0.03948772 0.017811649 0.02938368 -0.08046902 -0.00035210338 0.03672199
-0.007927552 0.06050101 -0.0112105785 0.0019150024 -0.14732718 0.07067055 -0.016480615 -0.10250992
0.069473855 -0.048580635 0.11843018 0.08399776 -0.06432827 0.043039154 0.007841635 -0.07616052
-0.08862616 0.023133464 0.1314506 -0.09164968 -0.035038196 -0.1071708 -0.052279282 -0.05529896
0.12335921 -0.04502841 -0.08222502 -0.008090504 -0.019283082 -0.028710308 0.034769583 -0.056357928
-0.078811616 0.05132581 -0.0387115 0.0060731415 -0.04216658 0.0026399633 -0.083907396 0.109406345
0.04787348 0.11630932 0.08209383 0.07170468 0.12302189 0.0471777 0.058630493 -0.015343601
-0.0041424884 0.053989477 -0.03540369 -0.004091599 0.017787179 -0.04329857 -0.015509854 -0.08739736
-0.02588772 0.021772405 -0.09550616 -0.0052092904 -0.05518622 -0.03021944 0.0097235 0.06560755
0.11469731 0.047235776 -0.07517209 0.008509905 0.035686303 -0.051522233 0.0026578102 0.08601833
0.029547427 0.035907052 0.08478594 -0.1782977 -0.021947436 0.064860836 0.06968483 -0.0006382333
0.058113214 0.021109337 0.06778584 0.073556535 0.055554148 -0.035820976 0.07613366 0.050613936
-0.12449637 -0.034805477 -0.07878002 -0.044286743 -0.08583736 -0.0034727082 0.09087922 0.09110048
0.043202348 0.08789409 -0.032895263 -0.01709201 0.1029041 -0.052483782 -0.049764045 0.06254925
-0.06267203 -0.02321496 -0.012805568 -0.01926253 -0.04703718 -0.055828664 -0.06835907 0.049255196
-0.09764223 -0.018830962 0.029096348 0.039672084 -0.025606832 0.010376792 -0.06896171 0.116078116
0.0033369306 -0.03969805 0.027298216 0.009677218 -0.045708798 0.041467685 0.0529447 0.06390855
-0.04273018 -0.066193394 -0.07895194 0.08864814 0.004177484 -0.0853428 0.12498413 -0.045488473
-0.020078722 -0.07021637 -0.055521168 0.015286323 -0.070248105 -0.075398676 0.034026574 -0.15877216
-0.07727966 0.042114086 -0.005294622 -0.065214045 -0.04801089 -0.038878735 0.055001944 0.0132351965
0.09731782 -0.101432085 -0.0139687685 0.056603305 -0.13199508 0.07072899 0.018328033 0.0015941447
00000000: 8a36 11bd 956a 133d a52e b9bd 8d51 2abd
00000010: 2351 3c3d 2c2a ed3d 2bf2 41bd 2e3f af39
00000020: 2e37 a23d 89fe bdbd 2ea7 2abd 9e07 d5bd
00000030: 86e9 a5bd b4b7 273d daa3 4ebd 5bb7 123e
00000040: b549 343d 6234 8b3d 48da a4bd 341f 8cbd
00000050: fa31 c43d f178 0a3e 0ba8 293b b811 b93d
00000060: 4eb0 11bd c5c1 d43c dbb0 9abc f03f 0b3d
00000070: 301e da3d 0da5 8c3c 7cba 0abd 83a7 56bc
00000080: 0358 a73d b153 d73d bbaa 66bc ec57 d5bc
00000090: 243b 123d 0e00 5b3d c51a acbd fc25 8cbd
000000a0: 44f4 92bc c9b3 11be 5050 b53d 945f ed3d
000000b0: 4c96 02be b45b 0ebc 14b9 8ebc b4e5 5dbd
000000c0: beba cd3d 3b48 8ebd 3f57 b03c 282c 89ba
000000d0: ff97 413d 5b9d 223d c728 9c3c b926 29bc
000000e0: 8ef6 93bd bd47 2bbd f8be 603d 9e61 513d
000000f0: 2233 d63c fa62 363d 5ae7 e03d 90d0 283d
00000100: 5e39 7cbd 7616 c73c a071 c5bb d92d 80bd
00000110: b09c b33d 58f8 b23b 5093 a8ba e864 90bc
00000120: b10d 463d b6eb 4a3d 4d37 ff3a 1732 b3bc
00000130: 0b52 3e3d 8897 133d fbad e8bc 1af9 8f39
00000140: 2bb5 003c 52d4 4ebd 2b88 fd3d e8d1 80bc
00000150: d5cc efbd 1c41 adbc 171b f43c 557a e2bd
00000160: 842c 193a 7650 443e e0bd 21bd bce9 913c
00000170: 0bb6 f03c f1cc a4bd 849a b8b9 cc69 163d
00000180: 90e2 01bc e8cf 773d 93ac 37bc d100 fb3a
00000190: f0dc 16be b9bb 903d 5b02 87bc b9f0 d1bd
000001a0: 4f48 8e3d 7dfc 46bd 868b f23d 0507 ac3d
000001b0: 8abe 83bd d349 303d 337a 003c 0cfa 9bbd
000001c0: a281 b5bd 6482 bd3c fc9a 063e d4b2 bbbd
000001d0: 3684 0fbd 5d7c dbbd cd22 56bd 2a81 62bd
000001e0: c1a3 fc3d b66f 38bd 9765 a8bd 098e 04bc
000001f0: 8ef7 9dbc e131 ebbc 8d6a 0e3d 92d7 66bd
00000200: fc67 a1bd 033b 523d f38f 1ebd 3401 c73b
00000210: ddb6 2cbd 3c03 2d3b a4d7 abbd 6f10 e03d
00000220: fb16 443d 9533 ee3d cf20 a83d e7d9 923d
00000230: e7f2 fb3d 673d 413d 8726 703d ba63 7bbc
00000240: b6bd 87bb 1224 5d3d 7603 11bd d212 86bb
00000250: 6bb6 913c d759 31bd 0b1d 7ebc 63fd b2bd
00000260: 7c12 d4bc 0b5c b23c bc98 c3bd b2b2 aabb
00000270: f20a 62bd c28e f7bc 514f 1f3c 405d 863d
00000280: 6ce6 ea3d 4d7a 413d d3f3 99bd 216d 0b3c
00000290: cd2b 123d fa08 53bd a82e 2e3b 612a b03d
000002a0: 720d f23c 4613 133d 40a4 ad3d ac93 36be
000002b0: 1ccb b3bc c2d5 843d ecb6 8e3d 1d4f 27ba
000002c0: 1f08 6e3d 7ded ac3c 4dd3 8a3d cfa4 963d
000002d0: bf8c 633d 04b9 12bd f7eb 9b3d 8f50 4f3d
000002e0: f4f7 febd 3090 0ebd 6b57 a1bd 0466 35bd
000002f0: 7fcb afbd 6096 63bb e21e ba3d e392 ba3d
00000300: f2f4 303d d101 b43d 2fbd 06bd 8b04 8cbc
00000310: 63bf d23d 3cf9 56bd 62d5 4bbd d219 803d
00000320: 315a 80bd 4d2d bebc 72ce 51bc 74cc 9dbc
00000330: 0faa 40bd 99ac 64bd d7ff 8bbd d1bf 493d
00000340: a6f8 c7bd 6443 9abc 775b ee3c 327f 223d
00000350: 6bc5 d1bc 6c03 2a3c cc3b 8dbd 5dba ed3d
00000360: 68b0 5a3b 6c9a 22bd 82a0 df3c 328d 1e3c
00000370: 2639 3bbd 05da 293d 8bdc 583d 7ce2 823d
00000380: d705 2fbd 6790 87bd 8eb1 a1bd 288d b53d
00000390: 47e3 883b 35c8 aebd aef7 ff3d 1f52 3abd
000003a0: 227c a4bc 9acd 8fbd 2a6a 63bd 7c73 7a3c
000003b0: 3dde 8fbd 9f6a 9abd 735f 0b3d 2b95 22be
000003c0: cc44 9ebd d27f 2c3d 827e adbb f18e 85bd
000003d0: 11a7 44bd 4f3f 1fbd b849 613d 70d8 583c
000003e0: 914e c73d a0bb cfbd 43dd 64bc ded8 673d
000003f0: b829 07be 5cda 903d ac24 963c 9ff2 d03a

conv_block.7.bias f4 [16]
-0.010439009 0.05328289 -0.0034129878 0.10783916 0.10209474 -0.024231747 0.031557705 0.07448971
-0.03027646 0.033289462 0.03489929 -0.029275507 0.10959757 -0.061142247 0.051756233 -0.01116779
00000000: 6108 2bbc 293f 5a3d 6fac 5fbb c7da dc3d
00000010: 0c17 d13d a881 c6bc a742 013d 108e 983d
00000020: 5706 f8bc 885a 083d 8ff2 0e3d 30d3 efbc
00000030: b174 e03d 4b70 7abd 58fe 533d 1bf9 36bc

conv_block.8.weight f4 [32, 16, 3, 3]
0.08667562 -0.08162975 0.09820681 -0.06051537 -0.054630324 0.009328534 0.04950679 0.051594168
-0.1400795 0.09097751 0.028014366 -0.046890035 -0.061967526 -0.0433888 0.023656877 0.07131974
0.07791073 -0.061843134 -0.13377447 -0.04275744 0.016317975 0.11338251 -0.003551685 0.0062259585
-0.07236722 -0.023027986 -0.06580947 -0.1316112 0.0083663985 -0.08893561 0.025404144 -0.072154574
0.013067504 0.11779719 0.07126217 -0.063228704 0.012813356 0.041831966 0.04072789 0.04574388
0.035408303 -0.041597314 -0.08698146 -0.036985528 -0.020181926 -0.043982737 0.01244166 0.005136937
-0.05580951 0.044466577 0.0009168953 -0.19409649 0.10460004 0.06383815 -0.07726073 0.05226268
0.031309523 -0.055668462 -0.028097177 0.043546543 0.0065214345 0.008272691 -0.13514505 0.040953133
-0.08378537 -0.14176781 0.078021675 0.10399721 -0.053494006 0.10052866 -0.030005256 0.16192833
0.07067303 -0.026013805 -0.073605515 -0.14445089 -0.06908553 -0.063018374 0.08399659 -0.00076465553
0.0036645941 -0.06631047 0.00094853353 -0.00347368 -0.011615354 -0.01674379 0.045340892 -0.09497094
-0.051328424 0.015136858 -0.046848934 0.0014062908 0.07647553 0.023158832 -0.041710936 0.03198009
0.030029368 -0.0059333434 -0.059348036 -0.011681513 0.048175078 0.0669934 -0.055656057 -0.028518625
-0.044036034 -0.05380554 -0.007738876 -0.038207013 -0.035318855 -0.03447849 0.08926638 0.07215693
-0.11061263 -0.035202373 0.14034119 -0.060388178 0.058306847 -0.050543908 -0.016098652 0.02982828
0.0034638343 0.050068412 -0.07789204 0.026516926 -0.022417035 0.054744206 0.040791735 0.11808877
0.116547704 0.0804052 -0.04369122 -0.092933156 0.008285074 -0.1124275 -0.0037877765 -0.09145055
-0.056719717 0.0111498935 0.015973976 0.11069135 0.118632466 0.03548222 0.07589427 0.001571229
0.13599494 -0.021529078 0.14168109 0.019845294 0.014575658 -0.043855716 0.090955146 0.025995608
0.019385561 0.1328576 0.06821989 -0.025904821 -0.039894324 -0.075798556 -0.06958113 -0.005003357
0.07759132 -0.08750141 -0.035177965 -0.03247448 -0.031087058 -0.007318641 -0.08385298 -0.09660387
-0.020187784 -0.06786032 -0.06498021 -0.09484739 0.0065848893 0.03556668 0.058679946 -0.04145749
0.06961795 0.092961445 -0.071955375 0.046405908 -0.09172392 0.054853067 -0.11520473 0.04396614
-0.01192942 -0.03429533 -0.045904372 -0.01592992 0.047530804 -0.093676835 0.007923924 -0.02573813
-0.05846045 0.0352691 -0.0059172637 -0.022255098 -0.044477727 -0.043487284 -0.026893817 -0.09654127
0.055803522 0.020075677 0.010184559 0.10361377 0.00080025947 0.04939545 0.07326474 0.11189447
-0.0033451086 -0.015404687 0.057651762 0.03686776 -0.015607433 0.01813222 0.017416012 0.007459986
0.06299877 0.06789614 0.05673693 0.057136092 -0.035276614 -0.052300967 0.055728167 0.014917592
0.01835907 0.057997495 -0.06657382 0.12161482 0.03392781 -0.06537753 0.052527595 -0.061081413
-0.035284363 0.08467767 -0.027446873 0.10761851 0.045536913 0.08669522 0.01146136 -0.055838656
0.06608178 0.0129484385 0.04432811 -0.05986175 0.014291003 -0.06530608 -0.04692028 0.113006495
-0.044922367 -0.06745565 -0.06433258 0.06417145 0.08056058 0.014483329 0.024109052 0.10423784
00000000: fd82 b13d 802d a7bd a720 c93d f7de 77bd
00000010: 0cc4 5fbd b5d6 183c a2c7 4a3d 6854 533d
00000020: 0071 0fbe 6b52 ba3d 627e e53c c40f 40bd
00000030: a9d1 7dbd 74b8 31bd 11cc c13c 1510 923d
00000040: a98f 9f3d 3a4f 7dbd 2dfc 08be 6d22 2fbd
00000050: 46ad 853c 1735 e83d 63c3 68bb 2003 cc3b
00000060: 4435 94bd 30a5 bcbc 1ec7 86bd 16c5 06be
00000070: 3813 093c e023 b6bd 5a1c d03c c7c5 93bd
00000080: 1619 563c a73f f13d e7f1 913d 0d7e 81bd
00000090: 1cef 513c ff57 2b3d 4ad2 263d ef5d 3b3d
000000a0: 4c08 113d f261 2abd 5623 b2bd 237e 17bd
000000b0: 9154 a5bc 3e27 34bd 1bd8 4b3c c053 a83b
000000c0: 8398 64bd 9622 363d cd5b 703a 3bc1 46be
000000d0: 8c38 d63d 93bd 823d e03a 9ebd 6411 563d
000000e0: 6a3e 003d 9d04 64bd 0d2c e6bc dc5d 323d
000000f0: c2b1 d53b 2e8a 073c 7763 0abe 79be 273d
00000100: aa97 abbd 952b 11be d4c9 9f3d 7dfc d43d
00000110: 881c 5bbd f8e1 cd3d 95cd f5bc 8ad0 253e
00000120: 06bd 903d e71a d5bc 7dbe 96bd efea 13be
00000130: b77c 8dbd c70f 81bd 6706 ac3d 2a73 48ba
00000140: b029 703b c9cd 87bd 02a7 783a aea6 63bb
00000150: 534e 3ebc 462a 89bc 5fb7 393d 2080 c2bd
00000160: c13d 52bd 9600 783c abe4 3fbd 4a53 b83a
00000170: 349f 9c3d 97b7 bd3c 16d9 2abd 8efd 023d
00000180: 2600 f63c 7e6c c2bb ed16 73bd d163 3fbc
00000190: 3b53 453d d633 893d 9bf7 63bd e49f e9bc
000001a0: 215f 34bd 3363 5cbd 6696 fdbb f57e 1cbd
000001b0: 81aa 10bd 5139 0dbd 4bd1 b63d 03c7 933d
000001c0: e088 e2bd 5d30 10bd 9ab5 0f3e 9859 77bd
000001d0: 29d3 6e3d 2107 4fbd 52e1 83bc 705a f43c
000001e0: 7f01 633b 8914 4d3d dd85 9fbd 063a d93c
000001f0: eea3 b7bc 763b 603d 3c15 273d 86d8 f13d
00000200: 90b0 ee3d 7bab a43d 91f5 32bd bd53 bebd
00000210: 1ebe 073c 6440 e6bd 583c 78bb 6d4a bbbd
00000220: ef52 68bd 0bae 363c dbdb 823c 26b2 e23d
00000230: 94f5 f23d ce55 113d 746e 9b3d b2f1 cd3a
00000240: 4242 0b3e c05d b0bc d914 113e 9992 a23c
00000250: bece 6e3c 0da2 33bd b146 ba3d bef4 d43c
00000260: 78ce 9e3c d30b 083e dfb6 8b3d 5936 d4bc
00000270: 3b68 23bd 463c 9bbd 8d80 8ebd 33f3 a3bb
00000280: 33e8 9e3d f033 b3bd c516 10bd f603 05bd
00000290: 49aa febc 36d1 efbb 1cbb abbd 40d8 c5bd
000002a0: da60 a5bc 5afa 8abd 5814 85bd 593f c2bd
000002b0: 0ec6 d73b 5eae 113d 625a 703d 54cf 29bd
000002c0: db93 8e3d 9262 be3d 575d 93bd 1f14 3e3d
000002d0: c0d9 bbbd 9cad 603d 75f0 ebbd d715 343d
000002e0: 9d73 43bc 4379 0cbd 3906 3cbd 777f 82bc
000002f0: a9af 423d a4d9 bfbd 59d3 013c c5d8 d2bc
00000300: 3a74 6fbd 5576 103d 9be5 c1bb 5350 b6bc
00000310: 472e 36bd b91f 32bd 6c50 dcbc 6eb7 c5bd
00000320: 3c92 643d bf75 a43c 23dd 263c 7533 d43d
00000330: 81c8 513a e252 4a3d d30b 963d ee28 e53d
00000340: 9c39 5bbb f163 7cbc 4124 6c3d a602 173d
00000350: 52b6 7fbc 058a 943c 06ac 8e3c e672 f43b
00000360: 8005 813d 220d 8b3d fc64 683d 8907 6a3d
00000370: 367e 10bd 8a39 56bd 3843 643d ea68 743c
00000380: c365 963c c88e 6d3d db57 88bd 3111 f93d
00000390: e3f7 0a3d a8e4 85bd 2d27 573d 8130 7abd
000003a0: 5686 10bd 7c6b ad3d 44d8 e0bc 1867 dc3d
000003b0: ea84 3a3d 438d b13d 6ec8 3b3c 13b7 64bd
000003c0: e255 873d b025 543c 6491 353d 9831 75bd
000003d0: d024 6a3c 32bf 85bd 7b2f 40bd f36f e73d
000003e0: 8400 38bd 3026 8abd cdc0 83bd 526c 833d
000003f0: f2fc a43d 7c4b 6d3c 5980 c53c a67a d53d

conv_block.8.bias f4 [32]
0.02472406 -0.06397682 0.022742007 0.109692775 0.06434593 -0.03797212 -0.08503231 -0.046175163
-0.037457664 -0.065746404 0.045920447 0.08331212 -0.04950537 0.090706185 0.04079118 0.03508543
0.03651176 0.026807189 0.053349547 -0.0061740973 -0.08680403 0.006634699 -0.05706463 0.09293516
0.08189832 0.038457215 -0.06168843 -0.028920311 -0.103278205 0.08655429 0.021049652 -0.13991165
00000000: 1d8a ca3c 4706 83bd 724d ba3c 9ba6 e03d
00000010: cdc7 833d a788 1bbd 6b25 aebd 2b22 3dbd
00000020: 356d 19bd 0da6 86bd 1417 3c3d 8b9f aa3d
00000030: 25c6 4abd 2ac4 b93d a714 273d bdb5 0f3d
00000040: 5b8d 153d c09a db3c 0e85 5a3d 1550 cabb
00000050: 50c6 b1bd e467 d93b 9abc 69bd ca54 be3d
00000060: 4eba a73d 5085 1d3d 02ad 7cbd 4aea ecbc
00000070: 8683 d3bd 6043 b13d 5270 ac3c 0045 0fbe

conv_block.9.weight f4 [32]
1.0177898 0.96777844 0.8980781 1.0172913 0.9652575 1.0449275 0.93847793 0.9831173
1.0264481 1.002614 0.9710105 1.0034629 1.0063545 1.0277478 1.0364469 1.0414716
0.9831845 0.927994 1.0155272 0.94823366 0.9850654 0.8574085 1.0081098 0.9109207
0.9262496 1.0382069 0.81829 0.9192455 0.96645105 0.9340496 0.95111644 1.0755615
00000000: f046 823f 54c0 773f 72e8 653f 9a36 823f
00000010: 1e1b 773f 2fc0 853f 1740 703f 93ad 7b3f
00000020: a762 833f a855 803f 2594 783f 7971 803f
00000030: 39d0 803f 3d8d 833f 4baa 843f f14e 853f
00000040: fbb1 7b3f 0491 6d3f ccfc 813f 71bf 723f
00000050: 3f2d 7c3f 207f 5b3f be09 813f 1932 693f
00000060: b21e 6d3f f7e3 843f 747b 513f ac53 6b3f
00000070: 5669 773f e01d 6f3f 5e7c 733f 00ac 893f

conv_block.9.bias f4 [32]
-0.028188968 -0.048770487 -0.11692263 -0.009601933 -0.079960205 -0.039878506 -0.07832661 -0.03052651
-0.0059268773 -0.12265837 -0.01918017 -0.015996149 -0.039768755 -0.040819574 -0.05714567 0.009148301
-0.026122283 -0.000946291 -0.044209834 -0.08484617 -0.04449689 -0.13055885 -0.005014003 -0.06531849
-0.0449381 -0.032322507 -0.1480634 -0.037817925 -0.09692313 -0.058454383 -0.06261168 -0.069803685
00000000: 8dec e6bc 90c3 47bd 2275 efbd 6d51 1dbc
00000010: 2dc2 a3bd a557 23bd b469 a0bd bb12 fabc
00000020: 4036 c2bb 5034 fbbd bb1f 9dbc 5b0a 83bc
00000030: 90e4 22bd 6d32 27bd 9411 6abd c1e2 153c
00000040: 66fe d5bc 8410 78ba 5f15 35bd d4c3 adbd
00000050: 5f42 36bd 38b1 05be 814c a4bb b3c5 85bd
00000060: 0311 38bd 9b64 04bd ef9d 17be f8e6 1abd
00000070: a27f c6bd dd6d 6fbd 8d3a 80bd 3cf5 8ebd

conv_block.9.running_mean f4 [32]
0.011973145 0.059650265 0.038449023 0.08735595 -0.026753014 -0.047045726 -0.090044856 -0.10949945
-0.12529108 -0.09964637 0.07339107 0.0671083 -0.10256281 0.12315004 -0.06139895 -0.12399343
-0.035155594 -0.10662848 0.061400235 -0.059218016 -0.05676243 0.053265665 -0.13200513 0.10537507
0.04884736 0.013025123 -0.0911455 -0.05255076 -0.08512692 0.015755437 -0.00037401586 -0.12677814
00000000: 032b 443c d653 743d b97c 1d3d ade7 b23d
00000010: 2329 dbbc 05b3 40bd 7069 b8bd 3f41 e0bd
00000020: 4e4c 00be 6513 ccbd 0f4e 963d 1470 893d
00000030: 730c d2bd 1736 fc3d 777d 7bbd 44f0 fdbd
00000040: 50ff 0fbd 0860 dabd d07e 7b3d 978e 72bd
00000050: b97f 68bd 192d 5a3d 5a2c 07be e2ce d73d
00000060: 2b14 483d 5367 553c 7eaa babd 773f 57bd
00000070: 0657 aebd 8c11 813c 8f17 c4b9 21d2 01be

conv_block.9.running_var f4 [32]
0.12175339 0.12701666 0.08978374 0.13212329 0.123579636 0.14028051 0.11643162 0.09712674
0.12208908 0.11492421 0.098944865 0.109967336 0.10123918 0.112423256 0.11805037 0.14348133
0.08939589 0.115064085 0.14276513 0.09864439 0.11959273 0.08742652 0.12963232 0.082747206
0.09349007 0.120137244 0.06465455 0.10447139 0.121440776 0.098908626 0.11668099 0.112883694
00000000: d759 f93d a810 023e 8ae0 b73d 544b 073e
00000010: 5217 fd3d b2a5 0f3e b473 ee3d 62ea c63d
00000020: d709 fa3d 625d eb3d 9ba3 ca3d 8e36 e13d
00000030: 7d56 cf3d 2a3e e63d 64c4 f13d c5ec 123e
00000040: 3115 b73d b8a6 eb3d 0631 123e 1206 ca3d
00000050: 09ed f43d ad0c b33d 56be 043e 5e77 a93d
00000060: b977 bf3d 840a f63d 9b69 843d 19f5 d53d
00000070: f1b5 f83d 9b90 ca3d 71f6 ee3d 912f e73d

dense_block.1.weight f4 [2, 640]
-0.057523783 -0.04600579 -0.058469296 0.057221644 -0.064135365 0.001052713 -0.061198752 -0.0019813115
-0.06458691 -0.04757941 0.004983857 -0.02270112 -0.09069121 -0.0070872866 -0.08701628 0.045430575
-0.06480162 0.007819681 -0.02550798 0.011065555 0.03902276 0.0051201223 -0.053999927 0.004788229
-0.014864127 -0.020576632 -0.049940825 0.022490313 0.027455408 -0.01666974 -0.056725197 0.03691437
-0.011665284 0.008342822 0.011818757 0.009630735 -0.022588938 0.051488906 -0.092878975 -0.017774235
-0.045077734 -0.01396782 0.0041326517 0.010909778 -0.015188121 0.037386626 -0.01867493 0.029246612
-0.0037954033 0.023773052 -0.037589237 0.08672465 0.012845746 0.021037834 -0.04157682 -0.002694415
-0.026921382 0.0022448506 -0.041082308 0.01084143 0.04491324 -0.041207306 0.02886882 0.01566632
0.06421331 0.003831952 0.041097347 0.027828377 0.061644036 0.00407903 0.029260185 -0.0017047713
0.07773914 0.0020304327 0.04821531 0.02075484 0.07091705 0.0038659412 0.061466254 -0.011315745
0.0037662373 -0.0058952956 -0.039812263 0.01857213 0.0016697011 -0.028833332 -0.097154826 0.02112394
0.005021235 0.0048893443 -0.083884865 -0.020380862 -0.016311284 0.02374938 -0.06431253 0.005804777
0.013885612 0.016051723 -0.056355722 0.0387806 -0.0058704778 -0.07206379 -0.08578088 -0.029754102
0.03790601 -0.055294253 -0.06593769 -0.04284919 0.033209503 -0.051187523 -0.012399115 -0.06669571
0.014396915 -0.035859752 -0.06872011 -0.05026242 0.06739535 -0.07452678 -0.05696522 -0.02572174
-0.024696954 0.04621703 -0.03554889 0.010482777 -0.019453371 0.022675516 -0.024275878 0.01990249
-0.025527176 0.008581815 -0.009788158 -0.021617929 -0.035448503 0.059141226 -0.0048933136 -0.025492992
-0.01459237 0.041190606 -0.0010555668 0.015090901 0.07605962 0.0039972924 0.02935177 -0.06345176
0.027477425 0.024514513 -0.027148668 -0.031498045 0.03500918 0.020387871 -0.0037021276 -0.0056981985
0.038931705 0.08393878 -0.019449065 0.0022803936 0.0013741219 0.035771433 0.010982405 -0.00999913
0.023848718 -0.050250333 0.06905814 0.006723891 0.010073792 -0.061317153 0.043283727 0.027319374
-0.005299369 -0.008816158 0.08041062 0.033251714 0.04767927 -0.048424073 0.04857835 -0.0006686368
0.025150066 -0.041281033 0.049754307 -0.014198319 -0.012599678 0.07494938 0.024774179 -0.061279107
0.0109664 0.09041178 0.012191053 -0.09634902 -0.018831573 0.02288537 0.048769485 -0.09239481
-0.030525545 0.08858805 0.03333761 -0.06848254 0.010657221 0.07559083 -0.021854237 -0.09669647
0.08861215 -0.015349704 0.03349808 -0.033623204 0.03401025 0.017660163 0.006232605 0.039006993
0.019787962 0.007017231 0.019114243 0.038788565 0.008806257 0.042574245 0.00828847 -0.021282375
0.06758685 -0.023152912 0.040757414 -0.00780365 -0.012354116 0.02993822 -0.04449915 0.07529301
-0.013371712 0.04994516 0.013757393 0.06212826 0.00659712 0.06242446 -0.0046672756 0.09146833
0.020304631 0.044614222 0.0034578943 -0.0031937135 -0.028412968 0.043593686 0.038231112 0.06304652
-0.013498905 -0.07058569 -0.030675897 -0.042321064 0.086536236 -0.037319716 0.02517367 0.05584408
0.030629458 -0.05801063 0.023842175 0.038491625 0.07610981 -0.05763444 0.035373103 0.016234007
00000000: 0f9e 6bbd 9170 3cbd 807d 6fbd 3e61 6a3d
00000010: 6759 83bd 30fb 893a 8bab 7abd e4d8 01bb
00000020: 2446 84bd a1e2 42bd 9f4f a33b b3f7 b9bc
00000030: 50bc b9bd 783c e8bb 9735 b2bd 6915 3a3d
00000040: b6b6 84bd 1f1e 003c 1cf6 d0bc 4d4c 353c
00000050: 54d6 1f3d b3c6 a73b 072f 5dbd 93e6 9c3b
00000060: ab88 73bc 5390 a8bc c08e 4cbd 9b3d b83c
00000070: 2aea e03c fb8e 88bc ae58 68bd 8633 173d
00000080: bf1f 3fbc 55b0 083c 76a3 413c 3bca 1d3c
00000090: 700c b9bc 08e6 523d 5537 bebd 469b 91bc
000000a0: 6ea3 38bd 49d9 64bc 326b 873b edbe 323c
000000b0: 99d7 78bc b822 193d 2bfc 98bc 9796 ef3c
000000c0: 4dbc 78bb b4bf c23c 2cf7 19bd b19c b13d
000000d0: f776 523c 8957 ac3c 754c 2abd c894 30bb
000000e0: 3b8a dcbc 581e 133b ec45 28bd 41a0 313c
000000f0: f2f6 373d fec8 28bd 4e7e ec3c a856 803c
00000100: 4582 833d 7d21 7b3b b155 283d 56f8 e33c
00000110: 757e 7c3d 62a9 853b 0eb3 ef3c a272 dfba
00000120: b335 9f3d 0211 053b 6b7d 453d 0e06 aa3c
00000130: f53c 913d bb5b 7d3b 0ac4 7b3d ad65 39bc
00000140: fad2 763b 532d c1bb 2f12 23bd 9424 983c
00000150: dfd9 da3a e133 ecbc 1cf9 c6bd 1d0c ad3c
00000160: 2c89 a43b cb36 a03b d4cb abbd c4f5 a6bc
00000170: 3e9f 85bc 0f8e c23c 4ab6 83bd 0036 be3b
00000180: 7a80 633c e77e 833c 42d5 66bd 68d8 1e3d
00000190: 235d c0bb 2e96 93bd e3ad afbd e0be f3bc
000001a0: 5543 1b3d 3a7c 62bd 570a 87bd a282 2fbd
000001b0: b006 083d 02aa 51bd a825 4bbc c397 88bd
000001c0: 0ae1 6b3c ade1 12bd 21bd 8cbd f8df 4dbd
000001d0: 9306 8a3d 7fa1 98bd 5d54 69bd 66b6 d2bc
000001e0: 4451 cabc 124e 3d3d b69b 11bd f4bf 2b3c
000001f0: ad5c 9fbc 01c2 b93c 35de c6bc 8c0a a33c
00000200: 5e1e d1bc be9a 0c3c 835e 20bc 1518 b1bc
00000210: 7332 11bd 123e 723d 1758 a0bb aed6 d0bc
00000220: d614 6fbc 7bb7 283d f25a 8aba d43f 773c
00000230: 25c5 9b3d b8fb 823b 2073 f03c fff2 81bd
00000240: 5618 e13c a9d2 c83c e266 debc 1804 01bd
00000250: c965 0f3d 7704 a73c 659f 72bb f4b7 babb
00000260: da76 1f3d 18e8 ab3d a553 9fbc a872 153b
00000270: e11b b43a 1185 123d 8cef 333c 64d3 23bc
00000280: 635e c33c 4bd3 4dbd 5b6e 8d3d 1654 dc3b
00000290: 8c0c 253c b227 7bbd 474a 313d e1cc df3c
000002a0: 54a6 adbb a671 10bc 53ae a43d f332 083d
000002b0: 574b 433d 5258 46bd 18fa 463d 7547 2fba
000002c0: 8307 ce3c 4d16 29bd 2ccb 4b3d 11a0 68bc
000002d0: e16e 4ebc 0f7f 993d 38f3 ca3c cdff 7abd
000002e0: 6aac 333c d029 b93d fbbc 473c a352 c5bd
000002f0: ac44 9abc 197a bb3c 83c2 473d 7d39 bdbd
00000300: b510 fabc a76d b53d 058d 083d 9340 8cbd
00000310: a09b 2e3c 5dcf 9a3d a807 b3bc cd08 c6bd
00000320: 497a b53d 537d 7bbc 4835 093d 7cb8 09bd
00000330: 554e 0b3d 0cac 903c e13a cc3b ccc5 1f3d
00000340: 5d1a a23c cdf0 e53b 7995 9c3c c2e0 1e3d
00000350: 1e48 103c 5562 2e3d 5dcc 073c 6058 aebc
00000360: f96a 8a3d 2dab bdbc 3ff1 263d c3b5 ffbb
00000370: eb68 4abc ff40 f53c be44 36bd 3933 9a3d
00000380: 0615 5bbc 4c93 4c3d b066 613c 347a 7e3d
00000390: a72c d83b cab0 7f3d f2ef 98bb bf53 bb3d
000003a0: e655 a63c 67bd 363d d79d 623b 9f4d 51bb
000003b0: 50c2 e8bc 4b8f 323d 3a98 1c3d 891e 813d
000003c0: 832a 5dbc 3b8f 90bd 054c fbbc da58 2dbd
000003d0: e939 b13d 8fdc 18bd 0339 ce3c c3bc 643d
000003e0: a1ea fa3c 8e9c 6dbd aa50 c33c 65a9 1d3d
000003f0: 76df 9b3d 1712 6cbd 63e3 103d 2efd 843c

dense_block.1.bias f4 [2]
0.0029635418 -0.0142002795
00000000: fb37 423b 4aa8 68bc
